GeneralGames_DQN/outputs/backup/CNN/module_1440.pt (torch, 630215 bytes, 10 tensors)

conv1.weight f4 [32, 9, 8, 8]
0	0x3d1e3d83	0.03863288
1	0x3d25925f	0.040422793
2	0x3d7d1674	0.06178899
3	0x3dfbeed8	0.12301415
4	0x3e304227	0.17212735
5	0x3e16b687	0.14718066
6	0x3e320e52	0.17388275
7	0x3e057749	0.13033785
8	0x3cc1c58d	0.02365377
9	0x3dd895c6	0.10575442
10	0x3df29e12	0.11846556
11	0x3dd396fd	0.10331533
12	0x3e268b1b	0.16264002
13	0x3e23896d	0.15970393
14	0x3dc3407e	0.09533785
15	0x3e206ea1	0.15667202
16	0x3d8d66ea	0.06904395
17	0x3dde7131	0.10861433
18	0x3dc24cc6	0.094872996
19	0x3db152ef	0.086583965
20	0x3e0130d7	0.12616287
21	0x3e3cf278	0.1845187
22	0x3e50531f	0.20344208
23	0x3df2330c	0.11826143
24	0x3cef42f5	0.029206732
25	0x3d3166cb	0.04331092
26	0x3db40263	0.08789518
27	0x3d8f642d	0.07001529
28	0x3ddb8189	0.10718066
29	0x3de7e963	0.11323812
30	0x3e64041c	0.22267193
31	0x3e6a6711	0.22890879
32	0xbca01008	-0.019538894
33	0xbc0cc7ef	-0.00859259
34	0x3cdaadb8	0.026694164
35	0x3db53454	0.088478714
36	0x3e142b81	0.1446972
37	0xbbb230fd	-0.0054379688
38	0x3d628900	0.055306435
39	0x3e490b31	0.19633175
40	0x3db2de16	0.08733766
41	0x3c71c432	0.014756249
42	0xbd57f550	-0.052724183
43	0xbc4137eb	-0.011793117
44	0x3de40f5f	0.11135744
45	0x3d693459	0.05693469
46	0xbdab2b5c	-0.083578795
47	0x3e8112f4	0.25209773
48	0x3d209de0	0.03921306
49	0x3d1523b2	0.036410995
50	0x3d159897	0.036522474
51	0xbc819b3b	-0.01582109
52	0x3bd99298	0.00663979
53	0xbdc22a91	-0.09480775
54	0x3d86316f	0.065523975
55	0x3e9d6146	0.30738276
56	0xbdcd15f6	-0.10013954
57	0x3c97c83d	0.018528098
58	0xbd0429fb	-0.0322666
59	0x3d45d745	0.048301
60	0x3e01d5c2	0.12679198
61	0xbd7f601b	-0.062347513
62	0x3e19e7cb	0.15029828
63	0x3e8f14b1	0.27945474
64	0x3ea3e823	0.32013044
65	0x3df9469c	0.12171671
66	0xbe0de299	-0.13855971
67	0xbe70e54f	-0.23524974
68	0xbdaecaa6	-0.08534746
69	0x3cdc2c67	0.026876641
70	0xbd9c0fcf	-0.07620203
71	0xbe38f413	-0.18061857
72	0x3e1f1c72	0.15538195
73	0x3cae3274	0.021264292
74	0xbe1b07d0	-0.15139699
75	0xbe202e87	-0.15642749
76	0xbd09f3b7	-0.03367969
77	0x3d29fa89	0.041498695
78	0xbd0279e0	-0.03185451
79	0xbdb748c8	-0.08949429
80	0x3d9d0414	0.076667935
81	0xbdcf9cf1	-0.10137356
82	0xbdf9ddb1	-0.122004874
83	0xbd9269e6	-0.07149105
84	0xbd3787ac	-0.04480712
85	0xbc5162da	-0.012779916
86	0x3de3d972	0.11125459
87	0xbd0da97d	-0.034585465
88	0xbb4b0e9c	-0.003098405
89	0xbda0826f	-0.07837378
90	0xbe3f1333	-0.18659668
91	0xbda48540	-0.08033228
92	0xbd6a6b1a	-0.057231046
93	0xbdad0ca9	-0.0844968
94	0xbda03a32	-0.078236
95	0xbeafade6	-0.3431236
96	0x3d1e0389	0.03857759
97	0xbc961be0	-0.018323839
98	0xbce54844	-0.02798856
99	0x3d9b2f07	0.07577329
100	0x3d127b60	0.03576219
101	0xbcca0959	-0.02466266
102	0x3d09aa33	0.03360958
103	0xbdaae3e5	-0.08344249
104	0x3d96b888	0.07359415
105	0xbbfdee96	-0.007749389
106	0xbd363f20	-0.044493794
107	0xba2bf7d7	-0.00065600633
108	0x3e001842	0.12509254
109	0xbd94036a	-0.07227214
110	0xbe07b362	-0.13252023
111	0xbdb445cc	-0.08802375
112	0x3d80dae5	0.06291751
113	0x3defd836	0.11711161
114	0x3e72d649	0.23714556
115	0x3da9967c	0.08280656
116	0x3c8d2c48	0.017233029
117	0xbd340004	-0.043945327
118	0x3dbbee80	0.0917635
119	0xbe4ebdbc	-0.20189565
120	0xbcdf5be2	-0.027265493
121	0x3dcf2723	0.101148866
122	0x3e45de25	0.19323023
123	0x3df47d9a	0.11938019
124	0x3d7de3f1	0.06198496
125	0xbcf15852	-0.02946106
126	0xbd97aa87	-0.074055724
127	0xbee8dfac	-0.45483148
128	0xbb9c83ff	-0.0047764773
129	0xbc87071b	-0.01648288
130	0xbdf0988f	-0.11747848
131	0xbe44e8db	-0.19229452
132	0xbde46218	-0.111515224
133	0xbe05d8c0	-0.13070965
134	0xbe3e780e	-0.18600485
135	0xbe68a27b	-0.22718231
136	0xbcb4e500	-0.022081852
137	0xbdcfcb20	-0.10146165
138	0xbdd41263	-0.103550695
139	0xbdfee8a7	-0.12446719
140	0xbd28b3bd	-0.041187037
141	0xbe5878df	-0.21139859
142	0xbe753c0e	-0.2394869
143	0xbe488c6b	-0.19584815
144	0x3be08f34	0.0068530086
145	0xbdc1aadf	-0.09456419
146	0xbd72cde5	-0.059278388
147	0x3d436c9c	0.047711
148	0xbb40d854	-0.0029425817
149	0xbe512a0e	-0.20426199
150	0xbe60b4a2	-0.21943906
151	0xbe20b5f5	-0.15694411
152	0xbd85c5af	-0.06531846
153	0xbd8d2291	-0.06891359
154	0xbda8f045	-0.08248953
155	0x3d6eff9e	0.058349244
156	0x3b80fc1e	0.0039363047
157	0xbde51f53	-0.11187615
158	0xbeaa0dba	-0.33213598
159	0xbed918d3	-0.42401752
160	0x3d2ca8cf	0.042153176
161	0x3d9c9c19	0.07646961
162	0x3dd1612c	0.10223612
163	0x3e16275d	0.14663453
164	0x3da40942	0.08009578
165	0xbd8b810d	-0.06811724
166	0xbe428096	-0.18994364
167	0xbe7664fe	-0.24061963
168	0x3d732b94	0.05936773
169	0x3d828fcc	0.06375083
170	0xbcda0415	-0.026613275
171	0x3d52a972	0.051431127
172	0x3e2fc13d	0.17163558
173	0x3d565b4f	0.052333172
174	0xbe8a928e	-0.27064937
175	0xbe1dc0be	-0.15405557
176	0x3cd4435f	0.025911031
177	0x3dca1df6	0.09868996
178	0x3e67b0a9	0.22625984
179	0xbc82883b	-0.0159341
180	0x3cba40e4	0.02273602
181	0xbca84fb6	-0.020545822
182	0xbbcd0a74	-0.0062573496
183	0xbea0ad6a	-0.31382304
184	0xbd842c2c	-0.064537376
185	0x3e1657a9	0.14681877
186	0x3d877bae	0.06615387
187	0x3d3a8aa6	0.04554238
188	0x3d7abb51	0.061213795
189	0x3d0b1173	0.033952188
190	0xbe1b7f49	-0.15185274
191	0xbf0b6c89	-0.54462487
192	0x3dd4b00d	0.103851415
193	0x3e1d3be7	0.15354882
194	0x3dd1ef27	0.10250693
195	0x3d8dec04	0.06929782
196	0x3e17fa2f	0.14841531
197	0x3e013040	0.12616062
198	0x3d76e73e	0.060279123
199	0x3d9cc024	0.076538354
200	0x3d310561	0.04321802
201	0x3df5b54b	0.119974695
202	0x3c8dc8a6	0.01730759
203	0x3da18520	0.0788672
204	0x3e063f06	0.13109979
205	0x3dfbc9ba	0.12294336
206	0xbd8a80a3	-0.06762817
207	0x3d2db1d2	0.04240591
208	0x3d9023ff	0.07038116
209	0x3d89162e	0.066936836
210	0x3da9ee11	0.08297361
211	0x3b075ff5	0.002065656
212	0x3d815669	0.063153096
213	0x3d73d1a5	0.059526104
214	0x3d88d3b6	0.06681006
215	0x3dc2a827	0.09504729
216	0xbc7221d6	-0.014778575
217	0x3b4d3197	0.0031310075
218	0x3c1b5bf1	0.00948237
219	0x3ca29ada	0.01984923
220	0x3d5c3a89	0.05376676
221	0x3e01bfd0	0.12670827
222	0x3dfcc8dd	0.12342999
223	0x3e413f4d	0.18871804
224	0x3cdc2b07	0.026875986
225	0x3d1b61e5	0.037935156
226	0x3c463969	0.012098649
227	0x3d70336e	0.058642797
228	0x3d848018	0.064697444
229	0xbc6d9216	-0.014500162
230	0x3da410c6	0.08011012
231	0x3e210d03	0.1572762
232	0xbb56c2d0	-0.0032769926
233	0xbc978965	-0.018498132
234	0xbdc4adf0	-0.096034884
235	0x3cb86341	0.022508265
236	0x3d862532	0.06550063
237	0x389e5611	7.550058e-05
238	0xbdce6894	-0.100785404
239	0x3e39a1f0	0.1812818
240	0x3d395e44	0.045255914
241	0xbdb96cf1	-0.09053982
242	0x3cbdbee8	0.02316232
243	0x3cc46ee2	0.023978654
244	0x3d41d775	0.047324616
245	0xbd101b51	-0.0351823
246	0xbc3b5b95	-0.011435409
247	0x3e69f16e	0.22846004
248	0xbc47bf45	-0.012191598
249	0xbd5d41b8	-0.054017752
250	0xbdc210ea	-0.09475882
251	0x3c3bd9c1	0.011465491
252	0x3dc5a088	0.096497595
253	0xbcd92ff4	-0.026512124
254	0x3d63bf2b	0.055602234
255	0x3e8d0008	0.27539086

conv1.bias f4 [32]
0	0xbe1a94f5	-0.15095885
1	0x3e3dfd0f	0.18553565
2	0x3dd0b677	0.101910524
3	0x3d16b86b	0.03679697
4	0xbe7f3b30	-0.24924922
5	0x3e0f23d8	0.13978517
6	0xbe2d072c	-0.16897267
7	0x3e8ddf66	0.27709502
8	0x3e5a3086	0.21307573
9	0x3d95faba	0.07323213
10	0xbe3b82c3	-0.183116
11	0xbb0b1d96	-0.0021227351
12	0x3b2e10fe	0.002656042
13	0x3e5c523d	0.21515746
14	0xbe3a2c28	-0.18180907
15	0xbe23cca4	-0.15996033
16	0x3cbdb5ac	0.023157917
17	0xbcad744d	-0.02117362
18	0x3b63720c	0.0034705428
19	0x3db5a660	0.08869624
20	0x3e712244	0.23548228
21	0x3e817396	0.25283498
22	0xbdda5055	-0.10659853
23	0x3eec7c69	0.46188667
24	0x3e2580d2	0.16162422
25	0xbdd442b5	-0.10364286
26	0x3ead73ec	0.33877504
27	0x3dabbe56	0.08385913
28	0x3e58f82d	0.21188422
29	0xbe2d3ee0	-0.16918516
30	0xbd4e43e8	-0.05035773
31	0x3e5b689d	0.21426626

conv2.weight f4 [64, 32, 4, 4]
0	0x3da1526d	0.078770496
1	0xbe8bec07	-0.27328512
2	0xbe13e2e9	-0.14442028
3	0xbddc429a	-0.10754891
4	0xbe32108e	-0.17389128
5	0xbd94be4b	-0.07262858
6	0xbc8733a2	-0.016504113
7	0xbed97593	-0.42472515
8	0xba339af4	-0.0006851398
9	0xbe58c380	-0.21168327
10	0x3db4b732	0.08824004
11	0xbeed55ab	-0.46354422
12	0xbbed23d0	-0.007236935
13	0xbdf491cb	-0.1194187
14	0xbe0e4a63	-0.13895564
15	0xbabff915	-0.0014646376
16	0x3c63c401	0.013901711
17	0x3cbb4810	0.02286151
18	0x3c91e939	0.017811405
19	0x3e961c43	0.29318437
20	0xbd9f7176	-0.07785313
21	0xbd335801	-0.0437851
22	0x3e995341	0.2994633
23	0x3e4dbf97	0.20092617
24	0x3dd72467	0.1050499
25	0xbe6fd8ca	-0.23422542
26	0x3db71ca4	0.0894101
27	0xbe1e4ddd	-0.1545939
28	0x3d4e8ca6	0.0504271
29	0xbdd082ed	-0.10181222
30	0xbe45345e	-0.19258258
31	0x3dcb1003	0.09915163
32	0x3ccbaa36	0.024861436
33	0x3df8ecbe	0.1215453
34	0xbdbcf779	-0.09226889
35	0x3e8ce89d	0.2752122
36	0x3e680884	0.22659498
37	0x3d42f87f	0.047600266
38	0x3e0c2d04	0.13689047
39	0x3e74fd78	0.23924816
40	0xbcf13414	-0.029443778
41	0xbe0091bb	-0.12555592
42	0x3e41823f	0.18897341
43	0x3d9b2b62	0.07576634
44	0x3db4673f	0.08808755
45	0x3eaf3654	0.34221137
46	0x3e6e5e60	0.23278189
47	0x3ce2143e	0.027597543
48	0xbe1c7304	-0.1527825
49	0x3d189435	0.037250716
50	0xbadf4026	-0.0017032668
51	0xbe851c5e	-0.25998205
52	0xbe2be8fc	-0.16788095
53	0x3d204fa4	0.03913845
54	0xbdccc389	-0.09998233
55	0xbe3c7fca	-0.18408123
56	0xbd78130f	-0.06056505
57	0xbcdb2e6d	-0.026755536
58	0x3dc31ca0	0.09526944
59	0x3ccd7324	0.025079317
60	0x3d1e45ff	0.038640972
61	0xbd9cb744	-0.07652143
62	0xbe4f31da	-0.2023386
63	0xbd81b763	-0.06333806
64	0x3cf0e49b	0.029405883
65	0x3dd67b6b	0.10472759
66	0xbd994221	-0.07483316
67	0x3e578d7e	0.21050069
68	0xbd5666c3	-0.052344095
69	0xbe7b6a36	-0.24552235
70	0xbdccc100	-0.09997749
71	0xbe8eb0c2	-0.2786923
72	0xbe159bc5	-0.14610203
73	0xbd347f8f	-0.04406696
74	0x3df6bfc0	0.12048292
75	0xbe0b8bf7	-0.13627611
76	0x3da68c87	0.08132272
77	0xbd8278d3	-0.06370702
78	0xbd3adfdb	-0.04562364
79	0xbe1d027b	-0.15332977
80	0xbeace222	-0.33766276
81	0xbcdea630	-0.027178854
82	0xbe05cdf9	-0.13066854
83	0xbf3f268c	-0.7466819
84	0xbe2db153	-0.16962175
85	0x3e1b41ad	0.15161772
86	0xbdd0347a	-0.10166259
87	0xbb81ee82	-0.0039652
88	0x3e1f829c	0.15577167
89	0xbe1d08e7	-0.15335427
90	0xbed23ff5	-0.4106442
91	0xbe9a74eb	-0.30167326
92	0xbdd34a90	-0.10316956
93	0xbd505caf	-0.05086964
94	0xbdb266c7	-0.087110095
95	0x3cc93e1a	0.024565745
96	0x3dc83e78	0.0977754
97	0x3de907a8	0.113784134
98	0xbe0f38aa	-0.1398646
99	0xbe0cdc6c	-0.1375596
100	0xbbffba18	-0.0078041665
101	0x3b8425a1	0.004032806
102	0x3d376860	0.044777274
103	0xbd2ba764	-0.041907683
104	0xbe4145ae	-0.18874237
105	0x3dc1095c	0.09425613
106	0xbd4e3926	-0.05034747
107	0xbba9846d	-0.005173257
108	0x3d0116ee	0.031516008
109	0xbe0fb3de	-0.14033458
110	0xbd884046	-0.06652884
111	0xbc5bbe8e	-0.013412131
112	0x3d2d97df	0.042381164
113	0x3cf9ecb7	0.030508382
114	0x3e418026	0.18896541
115	0xbdcada3b	-0.099049054
116	0x3d6692d2	0.056292363
117	0xbdf7350d	-0.120706655
118	0x3d060129	0.03271595
119	0x3e8069c8	0.25080705
120	0x3c381a18	0.01123669
121	0x3e72b1bf	0.23700617
122	0x3dd3b0d0	0.10336459
123	0x3db6bdd3	0.08922925
124	0xbd19df83	-0.037566673
125	0xbdb951bb	-0.09048792
126	0xbd95730c	-0.07297334
127	0xbd4878ce	-0.048943333
128	0x3ea7320f	0.3265538
129	0x3e364b1e	0.17802092
130	0x3d6d805f	0.057983752
131	0xbd611162	-0.05494822
132	0x3e5f4b18	0.2180599
133	0xbd52db27	-0.05147853
134	0xbe3359e9	-0.17514767
135	0xbe6f989b	-0.23398058
136	0xbe4c1075	-0.19928153
137	0xbf05d8d9	-0.5228401
138	0xbdff2f38	-0.12460178
139	0xbe251006	-0.16119394
140	0xbe84709a	-0.25867158
141	0x3e6528c8	0.22378838
142	0x3dee85cb	0.11646613
143	0xbeaa6f6e	-0.3328814
144	0xbb5b5fa9	-0.0033473766
145	0x3dffe3e0	0.124946356
146	0x3c600692	0.0136734415
147	0x3e736bdd	0.23771615
148	0x3d4a8098	0.049439043
149	0x39e64d00	0.00043926388
150	0x3dbba8af	0.09163033
151	0xbdd27b81	-0.10277463
152	0x3d1afbb9	0.037837718
153	0xbd91bf67	-0.07116585
154	0xbd7c6837	-0.061622825
155	0x3db52c50	0.088463426
156	0x3cb5d4cb	0.022196194
157	0x3d6ea640	0.058264017
158	0x3c86473d	0.016391391
159	0x3deaae11	0.11458982
160	0xbd7f724c	-0.06236486
161	0xbd764c6f	-0.060131487
162	0xbe0fee5e	-0.14055774
163	0xbd9e3ee8	-0.07726842
164	0xbdd0ee6a	-0.10201724
165	0xbe211b28	-0.15733016
166	0x3b57ee9d	0.003294862
167	0xbe1e331e	-0.15449187
168	0xbda9142f	-0.08255803
169	0xbe9c70e1	-0.3055487
170	0xbe917803	-0.28411874
171	0xbe5a2167	-0.21301804
172	0xbd9b18a0	-0.07573056
173	0xbdee14a1	-0.116250284
174	0xbb4b73b0	-0.0031044297
175	0xbe1277d8	-0.1430353
176	0xbb8218e5	-0.003970253
177	0x3e34f161	0.17670204
178	0x3b8fad5b	0.0043846793
179	0xbdaead17	-0.08529108
180	0xbe0ef1cb	-0.13959424
181	0xbcadd238	-0.021218404
182	0x3b5e6b37	0.0033938417
183	0xbe7338cc	-0.23752135
184	0xbe088669	-0.13332523
185	0x3cb58661	0.022158803
186	0x3d7b29e0	0.061319232
187	0x3d2849a9	0.041085873
188	0xbe053036	-0.13006672
189	0xbe2d6a68	-0.16935122
190	0xbd994a3a	-0.07484861
191	0xbe045b22	-0.1292539
192	0x3bc20866	0.0059214113
193	0xbd95e776	-0.07319538
194	0x3e0433d4	0.12910396
195	0xbeee6fb6	-0.46569604
196	0x3d1c58c4	0.03817059
197	0x3da000a5	0.07812623
198	0xbd60e256	-0.05490335
199	0xbe4a1612	-0.19734982
200	0xbe4da6eb	-0.20083205
201	0x3e52756a	0.20552602
202	0xbdb76711	-0.08955205
203	0xbe6e7442	-0.23286536
204	0xbd843287	-0.0645495
205	0xbc5137a4	-0.012769613
206	0x3e0ba599	0.13637389
207	0xbe8a205a	-0.26977807
208	0xbdd312ab	-0.10306295
209	0x3e105725	0.14095743
210	0x3e1c3bf3	0.15257244
211	0x3d9871e3	0.07443597
212	0xbdc7ea1b	-0.09761449
213	0xbdb58710	-0.08863652
214	0xbdb06bfa	-0.08614345
215	0xbd07ff25	-0.03320231
216	0xbc904673	-0.017611718
217	0xbe859f6f	-0.260982
218	0xbdb5ac41	-0.088707455
219	0xbe05571c	-0.13021511
220	0x3e50d8ec	0.20395249
221	0x3dc88457	0.09790867
222	0xbe0493e5	-0.12947042
223	0x3e8a3091	0.26990178
224	0x3e208bba	0.15678301
225	0xbe29bf46	-0.16576871
226	0xbd87496b	-0.066058
227	0x3df99d34	0.12188187
228	0x3da83e08	0.082149565
229	0x3d1c7379	0.03819606
230	0x3db28a15	0.08717743
231	0xbcad8d0b	-0.021185419
232	0xbe5155b5	-0.20442851
233	0x3d59753f	0.05309033
234	0x3caac493	0.020845687
235	0xbe0dce86	-0.13848314
236	0xbdb8892c	-0.090105385
237	0xbdc5c5ec	-0.09656891
238	0x3d87892b	0.066179596
239	0xbee86d8d	-0.4539608
240	0x3ccab742	0.024745587
241	0x3e20c160	0.15698767
242	0x3d92dc2e	0.07170902
243	0x3e2df3b4	0.16987497
244	0x3d94b264	0.07260588
245	0x3e040a74	0.12894613
246	0x3db60c38	0.08889049
247	0x3d972a0f	0.07381069
248	0x3d8ecf1f	0.06973099
249	0x3dfaf963	0.12254598
250	0x3d9ad9f0	0.075610995
251	0x3cf83aa8	0.030301407
252	0x3ba2a9cb	0.0049640886
253	0x3d11ef91	0.03562886
254	0xbcfc70f8	-0.030815586
255	0xbb600891	-0.0034184793

conv2.bias f4 [64]
0	0xbe39e405	-0.18153389
1	0xbe115396	-0.14192042
2	0xbe5b964b	-0.21444051
3	0x3d98c095	0.07458607
4	0xbd62df3a	-0.055388667
5	0xbd7bda22	-0.061487325
6	0xbeb2df3a	-0.34935933
7	0xbdfbef9f	-0.123015635
8	0x3d83da4a	0.0643812
9	0xbd8654a3	-0.06559112
10	0xbe0b0259	-0.13575114
11	0xbdec0fb1	-0.115264304
12	0xbd515593	-0.051107
13	0x3e0723a0	0.13197184
14	0x3d8b4c94	0.068017155
15	0xbe462b5a	-0.19352475
16	0xbc8dcd6b	-0.017309865
17	0x3ba2426d	0.004951766
18	0xbdedfa15	-0.11619965
19	0xbe1ab19f	-0.1510682
20	0x3d5795f1	0.05263323
21	0xbe5dbbe4	-0.21653706
22	0xbde74009	-0.112915106
23	0xbe97dc0e	-0.29660076
24	0x3e183f06	0.14867792
25	0xbe42ec68	-0.19035494
26	0xbd86acf7	-0.06575959
27	0x3dd14f71	0.1022023
28	0x3c219511	0.0098622
29	0xbe81c342	-0.25344282
30	0xbe341144	-0.17584711
31	0xbe1343ed	-0.1438138
32	0xbe810e5b	-0.25206265
33	0xbe193df7	-0.14965044
34	0xbdbf56ef	-0.09342753
35	0x3da7f8c6	0.08201747
36	0xbe1121b2	-0.1417301
37	0x3dfd4fc4	0.1236873
38	0xbd9d50a4	-0.076813966
39	0xbe72d731	-0.23714902
40	0xbd8fa057	-0.07013004
41	0xbe91f3ab	-0.28506216
42	0xbe981673	-0.29704627
43	0xbdb3bbcc	-0.08776054
44	0xbe2f9404	-0.17146307
45	0x3c4c84b4	0.012482811
46	0x3e8fac41	0.28061107
47	0x3e02d748	0.12777436
48	0xbdeb1ecb	-0.11480483
49	0x3e0d4d8d	0.13799115
50	0xbe25230a	-0.16126648
51	0xbbdfa81d	-0.0068254606
52	0x3e9d4665	0.3071777
53	0xbe257894	-0.16159278
54	0xbe15a532	-0.14613798
55	0xbdbe891f	-0.093034975
56	0xbd9f54de	-0.07779859
57	0x3d633bdd	0.055477012
58	0xbd08d89e	-0.033409707
59	0xbe32126d	-0.17389841
60	0xbdfd2523	-0.12360599
61	0x3e4c9ce9	0.19981731
62	0xbe927e13	-0.28611812
63	0xbd483abc	-0.04888414

conv3.weight f4 [64, 64, 3, 3]
0	0x3c875a45	0.016522536
1	0x3e1a02e2	0.15040162
2	0xbe930847	-0.28717253
3	0xbd4920be	-0.04910349
4	0x3bb70d1b	0.005586279
5	0xbea8ac65	-0.32944027
6	0x3e06ff9d	0.13183446
7	0xbd5a5895	-0.053307135
8	0xbd902179	-0.070376344
9	0xbe5d3978	-0.21603954
10	0x3e451e2b	0.1924979
11	0x3c3ce523	0.01152924
12	0xbe3834ff	-0.17988966
13	0xbda5435a	-0.08069487
14	0xbcf64b68	-0.030065253
15	0x3c843979	0.016140686
16	0xbe686dc6	-0.22698125
17	0x3de0a9f5	0.10969917
18	0x3d55730a	0.052111663
19	0xbe0e1ed5	-0.13878949
20	0x3d308647	0.043096807
21	0x3e388d01	0.18022539
22	0x3de19a0a	0.11015709
23	0xbd2ac035	-0.04168721
24	0x3d3e0bdf	0.04639804
25	0xbd1b16f6	-0.037863694
26	0xbd2056ce	-0.039145283
27	0xbdfb9f3a	-0.122862294
28	0x3be1496f	0.006875209
29	0x3e00bf29	0.12572922
30	0x3e5b3f06	0.2141076
31	0x3e6ed54f	0.23323558
32	0x3dee6bc0	0.116416454
33	0x3c979493	0.018503463
34	0xbd67ddd6	-0.056608044
35	0x3ae0420e	0.001710953
36	0x3daed83f	0.085373394
37	0x3d05abf1	0.03263468
38	0x3e11a7a1	0.14224102
39	0xbe30a05e	-0.17248675
40	0xbd0fe8db	-0.035134178
41	0x3d665e9e	0.056242578
42	0xbef860d4	-0.48511374
43	0x3d73a10d	0.059479762
44	0xbdb9c3eb	-0.090705715
45	0x3d9af175	0.075655855
46	0x3d750706	0.05982115
47	0x3d56f6cd	0.05248146
48	0x3da4cd1f	0.08046936
49	0x3d21a1a6	0.0394608
50	0x3d1868f7	0.037209477
51	0xbd930e99	-0.07180519
52	0xbafba61f	-0.0019199288
53	0xbd0b8e92	-0.034071513
54	0xbd3d28e5	-0.04618158
55	0xbce86d4d	-0.028372431
56	0x3d872e95	0.06600682
57	0x3e0fef30	0.14056087
58	0xbdf68f21	-0.120390184
59	0x3d844322	0.06458117
60	0xbd932197	-0.07184141
61	0xbd63042f	-0.05542391
62	0xbe1c14ec	-0.15242356
63	0x3c930c1a	0.017950106
64	0xbd5c12c6	-0.05372884
65	0xbe175bc3	-0.14781098
66	0xbd319dc2	-0.04336334
67	0x3d02cc5a	0.031933166
68	0xbe596962	-0.21231607
69	0x3e154de9	0.14580502
70	0x3dd9a33f	0.1062684
71	0xbbbd5b91	-0.005778738
72	0x3d070806	0.032966636
73	0xbd4af04b	-0.049545567
74	0x3b838a3b	0.004014281
75	0xbc3ce815	-0.011529942
76	0x3b03d690	0.0020116903
77	0x3c816331	0.015794368
78	0x3d487b81	0.048945908
79	0x3e4ae70d	0.19814701
80	0xbec6f935	-0.38862005
81	0xbc1bae12	-0.009501951
82	0x3cff83b6	0.031190734
83	0xbb1df998	-0.0024105068
84	0x3dc40aa4	0.09572342
85	0xbc944f0a	-0.018104095
86	0xbd963934	-0.073351294
87	0xbe6ddb93	-0.23228292
88	0x3decf298	0.115697086
89	0xbcd97555	-0.026545206
90	0xbcd92e3f	-0.02651131
91	0xbd4409e8	-0.04786101
92	0xbcb8758f	-0.022516994
93	0xbe062c06	-0.13102731
94	0x3deab517	0.114603214
95	0xbdeed102	-0.11660959
96	0xbda3e755	-0.080031075
97	0x3e1228e8	0.14273417
98	0x3e8212b1	0.25404885
99	0xbe1dc8a1	-0.15408565
100	0xbe2a3937	-0.16623388
101	0xbbb10b48	-0.005402956
102	0x3e2d9c9b	0.16954271
103	0xbd770def	-0.060316022
104	0x3e55c50f	0.20875953
105	0x3e46c8b7	0.19412504
106	0x3e3e94e6	0.18611488
107	0xbda54d25	-0.08071355
108	0xbd85e4ae	-0.06537758
109	0xbe0d73fc	-0.13813776
110	0x3d275f30	0.040862262
111	0x3d9b978a	0.07597263
112	0xbd310f30	-0.043227375
113	0x3d8b7d79	0.068110414
114	0xbcd89c18	-0.026441619
115	0xbdcb339d	-0.09921954
116	0x3d801204	0.06253436
117	0xbe39156d	-0.1807458
118	0xbca60231	-0.020264717
119	0xbd10eee2	-0.035384066
120	0x3cb48cf6	0.022039872
121	0x3c2f582d	0.010702175
122	0x3d3a9491	0.04555184
123	0x3dcc4282	0.09973623
124	0xbdc2da46	-0.095142886
125	0x3dac7de8	0.08422452
126	0xbdfeb62c	-0.1243709
127	0x3e0520c0	0.13000774
128	0xbd5b8e5d	-0.053602565
129	0x3e50a4aa	0.20375314
130	0x3d1a5d34	0.03768654
131	0x3dbc06ef	0.0918101
132	0xbd4a3e3b	-0.049375754
133	0x3d4842a4	0.04889168
134	0xbd9633e5	-0.07334117
135	0x3d389bc0	0.04507041
136	0xbbec21ca	-0.0072061764
137	0xbd4f842c	-0.05066316
138	0x3dea1516	0.11429803
139	0xbab663d9	-0.0013915255
140	0xbd625240	-0.05525422
141	0x3e74fc4e	0.23924372
142	0x3deb457b	0.11487862
143	0x3dcff4e1	0.10154129
144	0xbe23dc9b	-0.16002123
145	0x3e05c8f3	0.13064937
146	0x3e834c12	0.25643975
147	0x3d4bc35c	0.049746856
148	0x3b878b73	0.0041364967
149	0xbe4fefb0	-0.20306277
150	0x3de6e7d2	0.11274685
151	0x3cb27b1f	0.021787224
152	0x3d994e10	0.07485592
153	0x3d71bfc9	0.05902079
154	0x3e2daceb	0.16960494
155	0x3d9add26	0.07561712
156	0xbd92af6b	-0.071623646
157	0x3c7c05bc	0.015382227
158	0x3d7ec830	0.062202632
159	0xbea50f33	-0.3223816
160	0xbe5fb676	-0.21846947
161	0xbcb4d874	-0.02207587
162	0xbd629301	-0.055315975
163	0xbd822056	-0.06353824
164	0x3d97975b	0.07401916
165	0xbd3decfb	-0.04636858
166	0x3c9f5f4e	0.019454625
167	0xbc0bb3ce	-0.0085267555
168	0xbcfdf038	-0.030998334
169	0xbe03a7a2	-0.12856916
170	0x3cd94f5b	0.026527097
171	0xbec4ce16	-0.3843848
172	0xbca33226	-0.019921374
173	0x3dc64193	0.09680476
174	0xbeb1c87c	-0.3472327
175	0xbd32a1ef	-0.043611463
176	0x3c4c4916	0.012468597
177	0xbde4588b	-0.11149701
178	0xbd3b5d45	-0.045743246
179	0xbde69bba	-0.11260171
180	0x3e39fc29	0.18162598
181	0x3e5e4fe7	0.21710168
182	0x3e2bb4f4	0.16768247
183	0xbecc2255	-0.39869943
184	0x3d9d97c2	0.07694961
185	0x3e28740c	0.16450518
186	0xbe615285	-0.22004135
187	0xbeb31c3f	-0.34982488
188	0x3ce6cd85	0.028174171
189	0xbcd73658	-0.02627103
190	0x3d95d764	0.07316473
191	0x3dab7af8	0.08373064
192	0xbc59d545	-0.013295476
193	0x3cf4c220	0.029877722
194	0xbda93bce	-0.0826336
195	0xbe199781	-0.149992
196	0x3d4576c0	0.048208952
197	0x3cc75ce5	0.024336288
198	0x3d4d875f	0.050177928
199	0x3dc8ab56	0.09798305
200	0x39fd559f	0.00048319713
201	0xbde99c3a	-0.11406751
202	0x3d3a5d48	0.045499116
203	0xbdfddbbe	-0.12395428
204	0xbee3d7c0	-0.44500542
205	0xbe39cd8a	-0.18144813
206	0x3d66b258	0.056322426
207	0x3e037d82	0.12840846
208	0x3e00fed7	0.12597214
209	0xbd0aaa52	-0.033853836
210	0xbde67382	-0.112525
211	0x3dfa04dd	0.12207959
212	0xbd62fa54	-0.055414513
213	0x3db07c75	0.08617488
214	0xbc5f5e59	-0.013633334
215	0x3d59c950	0.053170502
216	0xbc965918	-0.01835303
217	0xbdbbb8ab	-0.09166082
218	0x3ce319c8	0.027722254
219	0xbc27890f	-0.010225548
220	0x3d49781f	0.049186822
221	0xbe26173b	-0.16219799
222	0x3d732fb6	0.059371673
223	0xbc868df0	-0.016425103
224	0xbe79670f	-0.2435572
225	0x3e255109	0.16144194
226	0x3de53818	0.1119234
227	0xbb15ba0e	-0.0022846493
228	0xbd7c6a2e	-0.0616247
229	0x3dd80f11	0.10549749
230	0xbd953cfb	-0.07287022
231	0x3dc0bd1e	0.09411071
232	0x3d920d9b	0.07131501
233	0xbd23a46b	-0.039951723
234	0xbe35c4ed	-0.17750902
235	0x3ca0a0de	0.019607957
236	0xbd81919f	-0.06326603
237	0x3db4cd97	0.08828276
238	0xbe222d6a	-0.15837637
239	0x3cb3c615	0.021945039
240	0xbe3a5be5	-0.18199117
241	0xbe3a77c2	-0.18209746
242	0xbe9e71e1	-0.30946258
243	0xbe75846d	-0.23976298
244	0xbda1202e	-0.07867466
245	0x3c8bc77f	0.0170629
246	0xbde877c8	-0.113509715
247	0x3d71c473	0.05902524
248	0x3e1b3d84	0.15160185
249	0x3d664a5f	0.05622327
250	0xbd9ee466	-0.07758407
251	0xbd9f01a9	-0.077639885
252	0xbd5f4a45	-0.05451419
253	0xbc332068	-0.010933019
254	0xbd381fb2	-0.044952102
255	0x3bc9c40e	0.0061574047

conv3.bias f4 [64]
0	0xbe1f40e6	-0.155521
1	0x3e11c3e5	0.14234884
2	0x3e7b19ef	0.24521612
3	0xbdce37d3	-0.100692414
4	0x3df777ed	0.12083421
5	0x3e0f9aa9	0.14023842
6	0xbbf48cfd	-0.007463096
7	0x3efc4b38	0.49276137
8	0x3d604618	0.054754347
9	0xbd244def	-0.040113386
10	0x3e66bad9	0.22532214
11	0x3d890614	0.066906124
12	0xbc9cdaa8	-0.019147232
13	0xbc976853	-0.018482363
14	0xbca75c13	-0.020429647
15	0x3df915ca	0.12162359
16	0x3e108e00	0.14116669
17	0xbd86335b	-0.06552764
18	0x3e1e8791	0.15481402
19	0xbd6bebd6	-0.057597958
20	0xbcd06480	-0.025438547
21	0x3e0b5f64	0.13610607
22	0x3ccda685	0.025103817
23	0x3d96b866	0.0735939
24	0x3e4fc374	0.20289403
25	0x3e510375	0.20411475
26	0x3de62106	0.112367675
27	0xbe245c69	-0.16050877
28	0xbd4a9eba	-0.04946778
29	0x3ce8cf31	0.028419109
30	0x3e00f13f	0.12592028
31	0x3e529756	0.20565543
32	0x3d16ce10	0.03681761
33	0x3c75292a	0.014963428
34	0x3d86fbda	0.065910056
35	0xbd8c8dc5	-0.06862978
36	0xbd879c8c	-0.06621656
37	0x3cc0a12e	0.023514356
38	0x3e7507a5	0.23928697
39	0xbd0b4721	-0.03400338
40	0x3e07db13	0.13267164
41	0x3c3e1146	0.011600798
42	0x3caae7ab	0.020862421
43	0x3cad0750	0.021121651
44	0x3d681c12	0.056667395
45	0x3e3dd083	0.18536572
46	0x3b2d613e	0.0026455666
47	0x3cbe9fea	0.023269612
48	0x3e8fd319	0.28090742
49	0xbd233f18	-0.039855093
50	0x3dabf66b	0.0839661
51	0x3e7c4d96	0.24638972
52	0xbb2b87b5	-0.0026173417
53	0xbe454499	-0.19264449
54	0x3d9991df	0.07498526
55	0x3ccf74fe	0.02532434
56	0x3ca6aa6b	0.020344933
57	0x3e68ce99	0.22735061
58	0x3de9c9c6	0.11415438
59	0xbe26efc4	-0.16302401
60	0xbce9ebc2	-0.0285548
61	0x3c8ead02	0.01741648
62	0xbd04918f	-0.032365378
63	0x3d41cf21	0.047316674

fc1.weight f4 [256, 256]
0	0xbd984667	-0.07435303
1	0xbdb2da66	-0.087330624
2	0xbce78d73	-0.02826569
3	0xbd2092ca	-0.03920249
4	0xbd479e91	-0.048735205
5	0x3d64c0c2	0.05584789
6	0xbd6a2c9a	-0.05717144
7	0x3d94cfc3	0.0726619
8	0xbd8415a5	-0.06449441
9	0xbdb7ef28	-0.08981162
10	0xbda6f6ae	-0.08152519
11	0xbddf6d23	-0.10909488
12	0x3c8554ef	0.016275851
13	0xbe14dd4a	-0.1453754
14	0x3b4218f5	0.0029616926
15	0xbd2dd1e4	-0.042436495
16	0xbd9bfd2a	-0.076166466
17	0x3c8f2dd2	0.017477904
18	0xbc219132	-0.009861277
19	0x3b556d3a	0.0032566325
20	0x3d6c597b	0.057702523
21	0xbd9cd916	-0.07658593
22	0xbc41fd1e	-0.011840133
23	0xbd91d99e	-0.07121585
24	0xbd901018	-0.0703432
25	0xbbe05343	-0.006845863
26	0xbe1f8c84	-0.15580946
27	0xbe0f9b64	-0.1402412
28	0xbd5fe505	-0.05466177
29	0xbddf5cae	-0.10906349
30	0x3c21ea75	0.009882559
31	0x3cd3bac7	0.025845898
32	0x3d3ffae3	0.046870124
33	0xbd96cee3	-0.07363679
34	0x3b0969c4	0.0020967582
35	0xbdc90aba	-0.09816499
36	0x3c849ede	0.016189035
37	0xbdb78ee9	-0.08962805
38	0xbd924d57	-0.07143658
39	0xbd8b79c6	-0.06810336
40	0x3db2e9be	0.08735989
41	0xbd80d482	-0.06290533
42	0xbd478a41	-0.048715834
43	0x3bd21c92	0.0064120973
44	0xbd49f809	-0.04930881
45	0xbde45699	-0.1114933
46	0xbd8320a3	-0.06402709
47	0x3c64617a	0.013939256
48	0x3cd927a8	0.026508167
49	0xbd9a2b7d	-0.07527826
50	0xbd76e71d	-0.060279
51	0xbc8c9fba	-0.017166007
52	0x3b8e1b41	0.004336745
53	0x3a72f3d3	0.00092679
54	0x3cb3f979	0.021969544
55	0xbd5b6cca	-0.053570546
56	0xbda6b8c3	-0.08140709
57	0xbcd8d80d	-0.026470209
58	0xbe075293	-0.13215093
59	0xbe242b4e	-0.16032144
60	0xbd8f9250	-0.07010329
61	0xbc7c8658	-0.015412889
62	0xbd031fe9	-0.032012854
63	0x3cc3dfe6	0.023910474
64	0x3d6a8929	0.057259712
65	0xbdcc8556	-0.09986369
66	0xbcf49ba1	-0.029859366
67	0xbd9886d3	-0.07447591
68	0xbcb4565d	-0.022013837
69	0xbc6a70c0	-0.014309108
70	0x3d8a8754	0.06764093
71	0x3d8878ef	0.06663691
72	0xbd732bf3	-0.059368085
73	0xbdd3022f	-0.10303151
74	0x3c878b61	0.016545953
75	0x3d48e7b7	0.049049105
76	0xbdbb73c3	-0.09152939
77	0x3cdd82a0	0.027039826
78	0x3b38f745	0.0028223556
79	0xbd1a6bf1	-0.037700597
80	0xbd8895fb	-0.066692315
81	0xbd51b372	-0.051196523
82	0x3c1c5b49	0.009543248
83	0x3d523a7b	0.051325303
84	0xbdb15013	-0.08657851
85	0xbdc10446	-0.09424643
86	0xbdedc0a5	-0.1160901
87	0x3c124c42	0.008929314
88	0xbd8255be	-0.0636401
89	0xbcd686cf	-0.026187329
90	0xbd570fbc	-0.05250524
91	0xbd5cecd1	-0.053936783
92	0xbcdfa58b	-0.027300617
93	0x3d8f793b	0.07005545
94	0xbb76e597	-0.0037673467
95	0xbd238a43	-0.03992678
96	0xbd38c5fc	-0.045110688
97	0xbd6fac7a	-0.058514096
98	0xbd6a8a6d	-0.05726092
99	0x3c8cbd20	0.017180026
100	0x3d27a01d	0.04092418
101	0x3b63e7cc	0.0034775613
102	0xbccae15c	-0.024765663
103	0x3d8ecc27	0.06972533
104	0xbd1adc5f	-0.03780782
105	0xbdc9da4f	-0.09856092
106	0x3c8a1e3b	0.016860118
107	0xbd4bef84	-0.049788967
108	0xbd34884a	-0.044075288
109	0xbd04cfd8	-0.032424778
110	0xbda37d1f	-0.07982849
111	0x3ca79b3a	0.02045976
112	0xbe0de7b7	-0.13857923
113	0xbdf280b1	-0.11840952
114	0xbd97d82b	-0.07414278
115	0x3c95b7b9	0.018276082
116	0xbda76be1	-0.08174873
117	0xbd7e61a2	-0.06210483
118	0x3d4b6813	0.0496598
119	0x3a27de65	0.0006403684
120	0xbd745f2e	-0.059661083
121	0xbdc26f61	-0.094939
122	0xbd7e95f4	-0.062154725
123	0xbde8b9c5	-0.11363558
124	0x3d176356	0.03695997
125	0x3dc827d3	0.09773221
126	0xbd9af001	-0.07565308
127	0x3cfefd0b	0.03112652
128	0xbcc942b5	-0.024567941
129	0x3c2142a6	0.00984255
130	0x3be16588	0.0068785585
131	0x3ca6e72e	0.020373907
132	0x3b695bb2	0.0035607633
133	0xbd1feaf7	-0.03904244
134	0xbd29a0b1	-0.041413013
135	0xbca7e7c4	-0.020496257
136	0xbdab1de0	-0.083553076
137	0xbd26924a	-0.040666856
138	0xbd2b8ce0	-0.041882396
139	0xbb979046	-0.004625353
140	0xbdb041fc	-0.086063355
141	0xbd77c816	-0.06049355
142	0xbe0bc3fe	-0.13648984
143	0x3b2e1558	0.0026563015
144	0x3c1111df	0.008854358
145	0xbd613002	-0.054977424
146	0xbc5f22cf	-0.013619139
147	0xbcdeaa42	-0.027180795
148	0xbda968ab	-0.08271917
149	0xbe1d4499	-0.15358199
150	0xbc55a72b	-0.013040344
151	0xbc1ed8df	-0.009695261
152	0x3cc99426	0.024606775
153	0xbcc6350c	-0.024195217
154	0x3b5bef3f	0.003355935
155	0x3cdda57e	0.027056452
156	0xbc3787bf	-0.011201798
157	0x3da881b2	0.082278624
158	0xbd48b2a2	-0.048998483
159	0xbd29c216	-0.04144486
160	0xbdc9de83	-0.09856894
161	0xbbf1b97c	-0.007376848
162	0xbe0f77cc	-0.14010543
163	0x3ca0f037	0.019645793
164	0xbc95585d	-0.018230611
165	0xbd0663c1	-0.032809976
166	0xbccae560	-0.024767578
167	0xbce9c0e1	-0.028534355
168	0xbd475a1d	-0.048669923
169	0xbda8c3c8	-0.08240467
170	0xbd626d1f	-0.055279847
171	0xbd2ab8cd	-0.041680146
172	0x3ce43b43	0.02786029
173	0xbcce4918	-0.025181338
174	0x3c86474e	0.016391423
175	0xbd08a39a	-0.033359148
176	0xbce2fc73	-0.027708268
177	0xbd5afd97	-0.0534645
178	0xbd55ed69	-0.052228365
179	0x3d24825e	0.04016339
180	0xbd15cdb8	-0.03657314
181	0xbd900509	-0.070322104
182	0xbe237e37	-0.15966116
183	0xbd934215	-0.071903385
184	0xbd30771f	-0.043082353
185	0xbdaaa456	-0.08332126
186	0x3d3f6165	0.046723742
187	0x3c0a2375	0.008431305
188	0xbd23b8a1	-0.039970998
189	0xbd245dd5	-0.040128548
190	0xbbe81f5f	-0.007083818
191	0xbdcb50da	-0.099275306
192	0x3cbf1c12	0.023328815
193	0x3d41e81e	0.047340505
194	0xbc704aa6	-0.014666235
195	0xbc2d819f	-0.010589986
196	0xbd35d65f	-0.044393893
197	0xbd128b04	-0.035777107
198	0xbda7dbdc	-0.08196232
199	0xbd242ae6	-0.040079974
200	0xbd185819	-0.03719339
201	0xbc8b2d8a	-0.016989488
202	0x3d27ef50	0.04099971
203	0xbc405fba	-0.011741573
204	0xbdc9de7b	-0.09856888
205	0x3cae8ba0	0.021306813
206	0xbdc23015	-0.09481827
207	0xbccc849c	-0.024965577
208	0x3ce8f113	0.028435266
209	0xbd25cc8a	-0.040478267
210	0xbc96ad47	-0.018393172
211	0x3beea946	0.0072833626
212	0x3cb3b2fc	0.021935932
213	0xbb9a7141	-0.004713208
214	0xbe3435e3	-0.17598681
215	0xbdb2d200	-0.087314606
216	0xbccf0806	-0.02527238
217	0xbe0b7a4b	-0.1362087
218	0xbc52c48a	-0.012864241
219	0xbdc1865a	-0.09449454
220	0xbc5704a4	-0.013123665
221	0x3d889623	0.06669261
222	0xbb7fdd69	-0.0039041883
223	0xbdd60638	-0.10450405
224	0xbdca6bbc	-0.0988383
225	0x3b21ba45	0.0024677676
226	0xbdce84fe	-0.1008396
227	0xbde15b89	-0.11003787
228	0x3c19b844	0.009382311
229	0x3d361ead	0.04446285
230	0xbd2364be	-0.039890997
231	0xbd73d348	-0.059527665
232	0x3c69499c	0.014238741
233	0xbccb7ff1	-0.02484128
234	0x3d6bf0c3	0.057602655
235	0xbcd5b684	-0.026088007
236	0xbcfa163f	-0.030528186
237	0xbca9546f	-0.020670144
238	0xbc88318d	-0.01662519
239	0x3ac11c44	0.0014733155
240	0xbcbf080b	-0.023319265
241	0xbd9dd1a1	-0.07705999
242	0xbc85eca0	-0.016348183
243	0xbd730985	-0.05933525
244	0xbd896f4c	-0.06710681
245	0xbd0498cf	-0.032372292
246	0x3c84a5c5	0.016192326
247	0xbe12a33a	-0.14320078
248	0x3baa33e8	0.005194176
249	0x3d2a81ef	0.04162782
250	0x3d485b78	0.048915356
251	0xbb9019cc	-0.0043976065
252	0xbd27e3d4	-0.04098876
253	0xbdcf1ec8	-0.10113293
254	0x3c876f10	0.01653245
255	0x3ca2f5cb	0.019892594

fc1.bias f4 [256]
0	0xbdf7bf7f	-0.12097072
1	0xbcba7cfd	-0.022764677
2	0xbe03940f	-0.12849449
3	0xbd9a9690	-0.07548249
4	0xbd81ea78	-0.063435495
5	0x3a656710	0.0008751014
6	0x3ef06bc3	0.46957216
7	0xbd0ac8ab	-0.03388278
8	0xb9599dc2	-0.00020753502
9	0xbda9184a	-0.08256586
10	0xbd8540e5	-0.06506518
11	0x3cec97de	0.02888101
12	0xbd18c4f1	-0.037297193
13	0xbe0b3356	-0.13593802
14	0x3d0af1d6	0.03392204
15	0xbd8dc6e1	-0.06922699
16	0xbcc2cfe8	-0.023780778
17	0x3cfe5dd8	0.031050608
18	0xbdd40f7c	-0.10354516
19	0xbb544773	-0.003239122
20	0xbda36456	-0.07978122
21	0x3f032744	0.5123179
22	0xbd84710a	-0.06466873
23	0xbd6f9f6c	-0.058501646
24	0xbda2b38e	-0.079444036
25	0x3b0123d9	0.0019705205
26	0xbd9405dd	-0.07227681
27	0x3cd3e021	0.025863709
28	0xbd57bd7b	-0.052670937
29	0xbdc165f1	-0.09443272
30	0xbcce0654	-0.025149502
31	0x3be8968b	0.0070980242
32	0xbdca3b1b	-0.09874555
33	0xbd865ba3	-0.06560447
34	0xbdaed0c6	-0.08535914
35	0xbdc8e957	-0.09810131
36	0xbddba674	-0.10725108
37	0xbd7ec87f	-0.062202927
38	0xbdaf83d7	-0.08570068
39	0xbd063360	-0.03276384
40	0xbbcc343e	-0.0062318137
41	0xbe141faf	-0.14465211
42	0xbd3a1def	-0.045438703
43	0xbc97f3e7	-0.018548919
44	0xbdd7daef	-0.10539805
45	0xbd9bf7ea	-0.07615645
46	0x3c9fb6a3	0.019496268
47	0xbd9d06ba	-0.076672986
48	0xbdfa1662	-0.122113004
49	0xbd8bf2f4	-0.06833449
50	0xbdac915f	-0.08426165
51	0xbce937ff	-0.028469084
52	0xba8554c9	-0.0010172363
53	0xbd94d6e4	-0.0726755
54	0xbd7e8bd5	-0.062145073
55	0x3c3e1983	0.011602762
56	0x3e25c737	0.16189276
57	0x3d685735	0.056723792
58	0xbdc2724d	-0.094944574
59	0xbd47b161	-0.048753146
60	0xbdacc392	-0.084357396
61	0xbcd6b1af	-0.026207773
62	0xbb479c40	-0.0030458122
63	0xbd5de828	-0.05417648
64	0xbd4cae2b	-0.049970787
65	0x3d559fbe	0.052154295
66	0xbc8dc32d	-0.017304981
67	0xbd1aba94	-0.03777559
68	0x3e01676c	0.12637109
69	0xbdf4a076	-0.11944668
70	0xbdc36a09	-0.09541709
71	0xbd9786b5	-0.0739874
72	0xbdc842a4	-0.09778336
73	0x3eb2f08e	0.34949154
74	0xbd98c179	-0.07458777
75	0xbe087ce4	-0.13328892
76	0x3d3434c3	0.04399563
77	0x3ca18545	0.019716868
78	0xb888e8ea	-6.528369e-05
79	0xbdb1a8ae	-0.08674751
80	0xbdd6f1a5	-0.10495309
81	0xbdc73578	-0.09726995
82	0x3d5b05d4	0.053472355
83	0xbd045f66	-0.03231754
84	0xbd880f18	-0.06643504
85	0xbc1ed65c	-0.009694662
86	0xbb8e1065	-0.0043354505
87	0xbc588731	-0.013215826
88	0xbd095576	-0.033528768
89	0xbd72d04e	-0.059280686
90	0xbcf73983	-0.03017879
91	0x3d9877fe	0.07444762
92	0x3e00a8aa	0.1256434
93	0xba2044ad	-0.0006113749
94	0xbd673305	-0.05644514
95	0xbd08ee4b	-0.03343038
96	0x3d2d4de4	0.04231061
97	0x3cae8545	0.021303782
98	0xbc112d45	-0.008860891
99	0xbde46c87	-0.111535124
100	0xbe0dfdda	-0.13866368
101	0xbd42ff79	-0.04760692
102	0xbd80b236	-0.06283991
103	0xbce141e3	-0.027497238
104	0x3cdb5511	0.026773961
105	0xbd92b287	-0.07162958
106	0x3d0c1bd8	0.03420624
107	0xbdada78d	-0.084792234
108	0xbc63f050	-0.013912275
109	0x3e0bc7d3	0.13650446
110	0xbdcd32d3	-0.100194596
111	0xbdf3a5cf	-0.1189686
112	0xbcf948d1	-0.03043023
113	0x3d22d998	0.039758295
114	0xbd7d3884	-0.061821476
115	0xbadb2e1d	-0.0016722117
116	0xbd4ec9ab	-0.050485294
117	0x3ca4a8f1	0.020100089
118	0xbd2e26f7	-0.04251763
119	0x3e9a2eeb	0.3011392
120	0xbbeca905	-0.007222297
121	0x3badf4c8	0.005308721
122	0xbd60fc3e	-0.054928057
123	0xbd7562a3	-0.05990852
124	0xbdab4361	-0.08362461
125	0x3eb7a833	0.35870513
126	0xbb8b52e9	-0.004251827
127	0x3d95ebad	0.07320342
128	0xbda7144f	-0.081581704
129	0x3d661cbd	0.05617975
130	0xbd7a7505	-0.061146755
131	0xbdde67c7	-0.10859638
132	0xbb7b0f90	-0.0038308837
133	0xbcafe4b0	-0.021471351
134	0xbda9d985	-0.08293442
135	0xbd6bac4a	-0.057537355
136	0xbd187af1	-0.03722662
137	0xbd23009e	-0.03979551
138	0xbd2f003c	-0.042724833
139	0xbdb6fc97	-0.089348964
140	0xbdd567c9	-0.10420186
141	0xbc39681f	-0.011316328
142	0xbd66fec3	-0.056395303
143	0xbd22deb5	-0.03976317
144	0x3bb9a7d2	0.0056657577
145	0xbd0fe3fd	-0.035129536
146	0xbc99c02b	-0.01876839
147	0x3b0e4013	0.0021705672
148	0x3c9d2fe1	0.01918787
149	0x3d071248	0.03297642
150	0x3d060fcc	0.03272991
151	0xbd9a82a0	-0.07544446
152	0x3d1eac31	0.038738433
153	0xbc9ce4c9	-0.019152062
154	0xbd6f1853	-0.058372807
155	0xbaf59b01	-0.0018738211
156	0x3d4a220e	0.049348883
157	0xbd9aba57	-0.07555073
158	0xbd112670	-0.035437047
159	0xbd819a9a	-0.06328316
160	0xbdd90eb0	-0.105985045
161	0x3d8395fb	0.06425091
162	0x3cef5c45	0.029218802
163	0xbb519f95	-0.0031985987
164	0xbba967a8	-0.0051698275
165	0x3cd5fcbe	0.026121493
166	0xbc584f0f	-0.013202443
167	0x3e828900	0.25495148
168	0x3ebaecc1	0.36508754
169	0xbdd14721	-0.10218645
170	0x3e8cb3f5	0.27481046
171	0xbd5cbef3	-0.05389304
172	0xbba43d63	-0.0050122007
173	0x3c30c6d6	0.010789594
174	0x3cd3467e	0.02579045
175	0xbd38edca	-0.04514865
176	0x3da5d401	0.08097077
177	0xbe1ffee5	-0.15624578
178	0xbab6bb7b	-0.0013941372
179	0xbd83842d	-0.06421695
180	0xbdb3528b	-0.08755978
181	0xbbae7b44	-0.005324753
182	0xbcee3672	-0.029078696
183	0xbcb9fb48	-0.022702828
184	0xbdabb65c	-0.08384392
185	0xbcc4b211	-0.02401069
186	0xbd525879	-0.051353905
187	0x3da87cfe	0.08226965
188	0xbd0b13b2	-0.03395433
189	0xbcdf0a20	-0.027226508
190	0x3dcdd556	0.10050456
191	0xbe15991e	-0.14609191
192	0x3e57551a	0.21028557
193	0xbe1c6cb9	-0.1527585
194	0xb9ccddb1	-0.00039075085
195	0xbd9b4521	-0.07581545
196	0xbae1f19d	-0.0017238144
197	0xbd0bfe82	-0.034178264
198	0xbdc32e10	-0.0953027
199	0x3d7e672d	0.062110115
200	0xbdace46a	-0.08442004
201	0xbdc96d30	-0.09835279
202	0x3bc0284e	0.0058641797
203	0xbd320a61	-0.04346693
204	0xbd2eab39	-0.04264376
205	0xbc57573b	-0.013143356
206	0x3d1d347d	0.038380135
207	0xbd2c4105	-0.042054195
208	0xbd052bc4	-0.03251244
209	0x3e5d9705	0.2163964
210	0xbd550513	-0.052006792
211	0xbd36d6d8	-0.044638485
212	0xbd7cfd01	-0.06176472
213	0x3e041867	0.12899934
214	0x3ca7fecf	0.020507244
215	0xbe040299	-0.12891616
216	0xba68ff20	-0.0008888114
217	0x3dbd7733	0.09251251
218	0xbc9b0173	-0.01892159
219	0xbd6b7416	-0.057483755
220	0xbdd40dde	-0.103542075
221	0x3cc36632	0.023852441
222	0xbd5ad8e8	-0.053429514
223	0x3c98a8d6	0.018635195
224	0xbe08ec8c	-0.13371485
225	0xbcd26c77	-0.025686486
226	0xbb422178	-0.0029622
227	0x3ca3901f	0.019966183
228	0xbd1a40bd	-0.037659395
229	0x3c5a94e3	0.013341161
230	0xbdc5fa27	-0.096668534
231	0xba5266cf	-0.0008026184
232	0x3be391fc	0.006944893
233	0xbd722410	-0.059116423
234	0xbd2ba862	-0.04190863
235	0xbd55762c	-0.05211465
236	0xbea7ee8d	-0.32799187
237	0x3effb0b1	0.49939492
238	0x3c2b6180	0.0104602575
239	0x3dbfe84d	0.0937048
240	0xbd816e7f	-0.063199036
241	0xbd8e462b	-0.06946977
242	0x3b9de17c	0.0048181396
243	0xbc2d3fc3	-0.010574284
244	0xbcc56b32	-0.024098966
245	0x3b51659b	0.003195143
246	0xbdbee256	-0.09320514
247	0x3d179ae3	0.037012946
248	0x3ef7826a	0.48341686
249	0xbdd3da3b	-0.103443585
250	0x3b074e6c	0.0020646108
251	0x3bfcdf3b	0.007717041
252	0xbd7c1153	-0.06153996
253	0x3ed954a3	0.42447385
254	0xbde72484	-0.11286262
255	0xbd36de2c	-0.044645473

fc2.weight f4 [11, 256]
0	0xbdd6aae1	-0.10481811
1	0xbdca4239	-0.09875912
2	0xbe39fbec	-0.18162507
3	0xbd915636	-0.070965216
4	0x3e429d5c	0.1900534
5	0x3e3f494e	0.18680307
6	0x3d93ee93	0.07223239
7	0x3e0be3c3	0.13661103
8	0x3df96f4b	0.121794306
9	0x3e1e6ec9	0.15471949
10	0x3dd574bf	0.10422658
11	0x3d805a41	0.062672146
12	0x3d68d936	0.056847773
13	0x3ddd2a4c	0.10799083
14	0x3e46a6a7	0.1939951
15	0x3e01006f	0.12597822
16	0x3e141a85	0.14463241
17	0x3e0a55aa	0.13509241
18	0xbdaa1d7d	-0.08306406
19	0x3e10c896	0.14139017
20	0xbe24ef7d	-0.16106983
21	0x3e09303e	0.13397309
22	0xbdb70c6d	-0.08937917
23	0x3dab099f	0.083514445
24	0x3e31b9e8	0.17356074
25	0x3e0f7333	0.14008789
26	0x3e02f7c1	0.12789823
27	0x3e324f13	0.17412977
28	0x3e20fb32	0.15720823
29	0xbe0e695b	-0.13907377
30	0x3d682a30	0.056680858
31	0xbe023c23	-0.12718253
32	0x3d9a33e7	0.07529431
33	0x3e2f1489	0.17097677
34	0x3e92588f	0.2858319
35	0x3de17553	0.11008706
36	0x3dbdcf8e	0.092681035
37	0xbe3d0d95	-0.18462212
38	0xbde42166	-0.11139183
39	0x3e031f3a	0.1280488
40	0x3d7bf00a	0.061508216
41	0x3e24d1ad	0.1609561
42	0x3e257bde	0.16160533
43	0xbd91f040	-0.07125902
44	0xbdfaa136	-0.1223778
45	0x3e06eafd	0.13175578
46	0xbdcab168	-0.09897119
47	0x3e36c7eb	0.178497
48	0x3d274cbe	0.04084467
49	0xbdadc7ce	-0.08485375
50	0xbcb0a970	-0.02156517
51	0x3e09e320	0.13465548
52	0x3e1866a3	0.14882903
53	0x3dbc77c0	0.09202528
54	0xbe618ad0	-0.22025609
55	0x3e1aec42	0.15129188
56	0x3e827f77	0.25487873
57	0xbdcc9f9a	-0.09991379
58	0x3e1f323c	0.15546507
59	0xbe404b0e	-0.18778631
60	0xbdc1bd23	-0.09459903
61	0x3e1f7e18	0.15575445
62	0x3dce7145	0.10080198
63	0xbdea9349	-0.11453874
64	0x3e2b4966	0.16727218
65	0x3e6d0843	0.23147683
66	0x3de6fd74	0.11278811
67	0x3d35f078	0.044418782
68	0x3e112ba1	0.141768
69	0x3db3055f	0.08741259
70	0x3e36e5a6	0.17861041
71	0x3d972259	0.07379598
72	0x3e003f26	0.12524089
73	0x3da16cd3	0.07882085
74	0xbde6e406	-0.11273961
75	0xbcc2a4e8	-0.023760274
76	0x3d98d986	0.07463364
77	0x3e892867	0.26788637
78	0x3e0ab1e5	0.13544424
79	0x3e53b88b	0.20675866
80	0xbda868fb	-0.082231484
81	0x3ce612e2	0.028085176
82	0x3dbcddfe	0.09222029
83	0x3e4b2288	0.19837391
84	0x3e1c85df	0.15285443
85	0x3e1032c1	0.14081861
86	0x3e3ff81d	0.18746991
87	0xbdb83a31	-0.08995474
88	0x3d9a5c88	0.0753718
89	0xbdda9cdc	-0.1067445
90	0x3e13a9be	0.1442022
91	0x3df30a40	0.118671894
92	0x3ebb2557	0.36551926
93	0x3e2ceca0	0.1688714
94	0x3e5c33b0	0.21504092
95	0x3d84caca	0.064839914
96	0x3df88138	0.121340215
97	0x3e397cab	0.18113963
98	0x3dce7841	0.1008153
99	0xbe282d7f	-0.16423605
100	0xbdc421fd	-0.09576795
101	0x3d1f05c7	0.03882387
102	0xbe03edbe	-0.1288366
103	0x3db582c8	0.08862835
104	0xbe0f990e	-0.1402323
105	0xbdd9d4ec	-0.10636315
106	0xbdffe741	-0.1249528
107	0xbde9f7a0	-0.11424184
108	0x3dcc2cf8	0.099695146
109	0x3e03031f	0.1279416
110	0x3e2119e9	0.1573254
111	0xbd989d8c	-0.07451925
112	0x3e1dc43d	0.1540689
113	0x3e0dd572	0.13850954
114	0x3db0debc	0.08636233
115	0x3e03b7ab	0.12863033
116	0x3e14cdc9	0.14531626
117	0x3dfa7859	0.12229986
118	0x3e299494	0.16560584
119	0x3e407a11	0.18796565
120	0xbd9a0052	-0.07519592
121	0x3de2c210	0.11072171
122	0xbd31c305	-0.043398876
123	0xbd4b5176	-0.049638234
124	0xbe40e580	-0.18837547
125	0x3df7ae04	0.12093738
126	0x3e31a1a9	0.17346825
127	0x3dec034c	0.11524066
128	0x3dbe5910	0.09294331
129	0x3e560e87	0.20903979
130	0x3e22716e	0.15863582
131	0x3e60f82a	0.21969667
132	0xbe017553	-0.12642412
133	0x3daf9310	0.08572972
134	0x3e2119e9	0.1573254
135	0xbd1ee033	-0.03878803
136	0x3de41f70	0.11138809
137	0x3d454cef	0.048169073
138	0x3cae7606	0.021296512
139	0xbd8521b3	-0.06500568
140	0xbda81a4e	-0.08208142
141	0xbe452073	-0.1925066
142	0x3db5f978	0.08885473
143	0xbdf950be	-0.121736035
144	0x3de4303a	0.11142011
145	0xbdd65e47	-0.10467201
146	0x3e0cc4d5	0.1374696
147	0xbdc86575	-0.097849764
148	0x3e10a672	0.14125994
149	0x3df34e47	0.118801646
150	0x3b7195bd	0.0036862933
151	0xbdc8c0f3	-0.09802427
152	0x3e156301	0.14588548
153	0x3e331c00	0.1749115
154	0xbda0d7f7	-0.07853692
155	0x3cf6bd00	0.03011942
156	0x3e2a0288	0.16602528
157	0x3d3d6fc9	0.046249185
158	0x3e4e2c03	0.20133977
159	0xbd92c4f7	-0.07166474
160	0xbe2efaf9	-0.17087926
161	0x3e0a16ba	0.13485232
162	0xbd9c389a	-0.076279834
163	0x3d99aac4	0.07503274
164	0x3d9c222b	0.076237045
165	0x3e249de1	0.16075851
166	0x3e08783d	0.13327117
167	0x3e638a71	0.2222078
168	0x3e2f4f8b	0.17120187
169	0x3d89e6c8	0.06733471
170	0x3e8c8cbc	0.27451122
171	0x3e1afce9	0.1513554
172	0x3e35b1ca	0.17743602
173	0x3e5232ee	0.2052724
174	0x3e24822d	0.16065283
175	0xbe7e44f4	-0.24830991
176	0x3e0aa28f	0.13538574
177	0xbe0427cc	-0.12905806
178	0x3cc685da	0.024233747
179	0x3e398649	0.18117632
180	0x3e18f788	0.14938176
181	0x3e3b4a46	0.18290052
182	0x3dd9b27e	0.10629748
183	0x3df18406	0.117927596
184	0xbd2ebee5	-0.04266252
185	0xbe1c4332	-0.15260008
186	0x3dae29c4	0.0850406
187	0xbd193bfc	-0.03741072
188	0x3e1b9c5c	0.15196365
189	0x3d8940ae	0.0670179
190	0x3e6d0fa6	0.231505
191	0xbe866530	-0.26249075
192	0x3e25cb0e	0.1619074
193	0xbdc8e570	-0.09809387
194	0x3e06a33f	0.13148211
195	0x3e223b9d	0.15843053
196	0xbda691ec	-0.08133301
197	0x3e61c129	0.22046341
198	0x3e0f9600	0.14022064
199	0x3e1990bb	0.14996617
200	0xbd9ddfcc	-0.077087015
201	0x3e359e30	0.17736125
202	0x3e0d77e1	0.13815261
203	0x3cf19c37	0.029493434
204	0x3c1f218c	0.009712588
205	0xbda607f0	-0.08106983
206	0x3e4a1311	0.19733836
207	0x3e0185c7	0.12648688
208	0x3df70c70	0.12062919
209	0x3e711977	0.2354487
210	0x3de4bcc4	0.11168817
211	0x3e341675	0.17586692
212	0x3dedaf1d	0.11605666
213	0x3e8bd660	0.27311993
214	0x3e0e845d	0.1391768
215	0xbdb97f77	-0.09057515
216	0x3e5fda30	0.21860576
217	0x3e21794b	0.15768926
218	0x3da59524	0.08085087
219	0x3ddc9c2b	0.10771974
220	0xbe008c9a	-0.12553635
221	0xbda7ca96	-0.08192937
222	0x3e807b92	0.25094277
223	0x3e41f4bb	0.18941014
224	0x3e1896b1	0.14901234
225	0x3ca529fe	0.020161625
226	0x3e50da03	0.20395665
227	0x3dffc208	0.124881804
228	0x3d7e6887	0.062111404
229	0x3e258e51	0.1616757
230	0xbe8cdbf9	-0.27511576
231	0x3e6021a2	0.2188783
232	0x3e150c69	0.14555515
233	0xbddcd60a	-0.10783012
234	0x3d1b978f	0.037986334
235	0x3e1f51c3	0.15558533
236	0xbe29e5b9	-0.16591538
237	0x3dbe7d17	0.09301203
238	0xbd742c1d	-0.059612382
239	0x3dfb41fd	0.12268446
240	0x3dc6b3ad	0.09702239
241	0xbd99704e	-0.074921235
242	0xbda38bd6	-0.07985656
243	0x3dbf0b4d	0.09328327
244	0xbdbd4b07	-0.09242826
245	0x3dd293e3	0.102821134
246	0x3e50fc58	0.20408762
247	0x3e3e9c6b	0.18614356
248	0x3d8a538b	0.06754216
249	0x3dc32859	0.0952918
250	0x3e035803	0.12826543
251	0x3d7df40a	0.062000312
252	0x3e0b8478	0.13624752
253	0x3e04f80f	0.12985252
254	0xbdeeb9c0	-0.11656523
255	0x3e11e8f3	0.1424902

fc2.bias f4 [11]
0	0xbd98542e	-0.07437931
1	0x3e95a88c	0.29230154
2	0x3e102789	0.14077581
3	0x3ec17765	0.37786403
4	0x3e6afcae	0.22947952
5	0x3ec30318	0.38088298
6	0x3e0785cb	0.13234632
7	0x3eae704b	0.34070048
8	0x3e4e48d2	0.20144966
9	0x3ec2f17b	0.3807486
10	0x3e5dc594	0.21657401
