GeneralGames_DQN/outputs/backup/CNN/module_3210.pt (torch, 630215 bytes, 10 tensors)

conv1.weight f4 [32, 9, 8, 8]
00000000: 6fee 623d 62fa af3d 6b59 d33d 7106 303e
00000010: 3e16 813e d11f 6d3e d197 613e 2c52 2f3e
00000020: f728 a23c 80cd e73d ae68 f23d 8b29 fc3d
00000030: d596 593e 5976 5a3e 6255 de3d 6365 443e
00000040: 1719 8f3d 6e09 ea3d 586a a73d 4541 bc3d
00000050: 8e06 313e 99a1 4e3e f72c 613e 3e6c 223e
00000060: a4f8 bf3c 1ede 3c3d 2de6 2e3d f457 493d
00000070: a218 0b3e e89a 1c3e db21 753e 8152 923e
00000080: 7c3e 58bd baab 173d bfd2 1d3d 8f4d a93d
00000090: c811 2e3e 3895 e3bb e08c 1d3d 2ed4 813e
000000a0: 64a7 113d 787d 803d c58b 2fbd f3f6 19bd
000000b0: 364e cf3d 03a6 cf3d c360 0bbe 7fc5 9b3e
000000c0: 5ca9 823d d088 653d 616d c83c c53d 89bd
000000d0: 8622 683d 2a58 afbd 26e7 b13d f3fe a83e
000000e0: 8d0f b5bd 56aa 2b3d 49ec 5cbd ff6f 9d3c
000000f0: d005 9f3d fb95 a0bd 45a5 bf3d 0489 923e
00000100: 9469 4e3e f860 d83c 10cf 3ebe 291d 88be
00000110: 9370 25be 5ac8 9abd 6eca 07be eedd 45be
00000120: 5555 073d 7f38 c9bc 92dd 0dbe 9065 15be
00000130: 441e a5bd 4372 a9bc 107a 6cbd 2d51 c2bd
00000140: d5c0 993a 606f bdbd 730c b7bd 6919 9ebd
00000150: 5225 b0bd 2f1d 14bd a7ba 043e eb31 8dbc
00000160: f2ff 53bd b000 6fbd 9272 35be 4f4f f7bd
00000170: 7227 bdbd 20f3 12bd 3018 75bd 3066 b7be
00000180: c378 61bc 3066 463d 80be cd3c f5d1 973d
00000190: 0ce8 103d fdc2 d2ba 382d 223d 0033 03be
000001a0: f4c9 a13b 460b 483d ca0f e9ba 9790 7fbc
000001b0: f8b6 ab3d 8c15 7bbc 210d 1ebe 4450 0abe
000001c0: 1983 b93d 3925 193e 1a46 713e 3b1d e33c
000001d0: cd62 da3c c090 3bbd a00e 2f3e dde8 3fbe
000001e0: 1530 023c ba1c 0f3e 48df 3e3e 4d06 d43d
000001f0: 457d 01bc f736 13bd bd6a 57bd 7c6a b7be
00000200: e869 21bd 5900 8abd 9887 16be 266c 50be
00000210: 7a6c 28be d23a 54be d07e 70be 2eca 85be
00000220: b0fa 1ebd 2a08 d0bd 7c97 aabd 1594 cabd
00000230: f003 74bd 3445 71be 7326 82be d977 59be
00000240: 2383 163d b4b2 2cbd 29b4 fbbc f988 153d
00000250: 7d50 12bd fdc9 4bbe 59bc 3dbe 303f 19be
00000260: ea15 eabc cae2 97bc 79f3 d5bd ebd1 bdbc
00000270: cf17 3fbd 19d7 55bd 119e 92be c3c4 e3be
00000280: 7f2d d73c 0e61 163e de51 013e 2325 e73d
00000290: fc9f 813d 3d39 69bd 8f8f 23be f73a 8ebe
000002a0: 632e 533c 8708 063e 5c4e da3a cef1 2e3c
000002b0: 7d96 ec3d 239c d83d 1a28 8ebe 05a2 3fbe
000002c0: 746a 703d 59a8 f23d 6fa9 523e f310 eabd
000002d0: 7a20 bf3c 899f f2bc 7da4 593d f60c a1be
000002e0: b40a ccbc 4bb4 3e3e c384 433d 1dc3 ec3b
000002f0: 8fe2 debb f1e7 383c 3d88 2bbe 404a 09bf
00000300: 0533 de3d 678f 1a3e c3a5 de3d f1ba 5e3d
00000310: bb7f 133e 811d fe3d e814 9f3c 108b 803d
00000320: 8691 2b3d aa28 e43d 7c2c 8b3c e088 8b3d
00000330: 1c23 eb3d aa2d ba3d 38fe eebd 594a f33c
00000340: d186 933d 9efe 7c3d abab 773d a52f e9bb
00000350: 0b14 263d 6bba a63b 483f e33b ead6 8c3d
00000360: c630 34bd e22d ccbc 08bd c7bc a4e5 7ebb
00000370: 9ccd e63c 24c2 b73d 011f 9a3d d70d 2a3e
00000380: 838d c23c 61a5 243d 6f8c 023d 7560 9a3b
00000390: 17d0 983d 2a9a e8bc 14f4 e8bb 3a05 d83d
000003a0: 82a2 4dbd d1a0 2f3b cfb2 f3bc 2ddf 27bc
000003b0: 45c0 1f3c 5d41 c23c f240 2abe cd17 e43d
000003c0: 5d45 9b3d add0 b6bd fb71 a93c 1271 9dbc
000003d0: dc29 5c3d 8fc9 453b ff58 8bbd 51f3 093e
000003e0: 03de dc3c 47c7 acbb 92a8 b6bd 72bd b83b
000003f0: d694 9c3d f981 853c d05e 073d 8cb3 6b3e
0.05540317 0.085926786 0.103197895 0.17189957 0.25212282 0.23156668 0.2203057 0.1712119
0.019794924 0.11318493 0.11836372 0.12312611 0.21248944 0.21334209 0.10856129 0.19179301
0.069872074 0.1142758 0.0817458 0.09192137 0.17287657 0.20178832 0.21989809 0.15861604
0.02343399 0.046110265 0.04269998 0.049156144 0.13583615 0.15293467 0.23938696 0.2857857
-0.052793965 0.037029006 0.03853106 0.08266746 0.1699897 -0.0069452785 0.038464427 0.25357193
0.035560027 0.06273931 -0.042857904 -0.037589025 0.101223394 0.10139086 -0.1361113 0.30424115
0.06379959 0.056038678 0.024466218 -0.06701235 0.05667355 -0.08561738 0.08686666 0.3300701
-0.08840857 0.041910492 -0.053936277 0.019218443 0.077647805 -0.078411065 0.093576945 0.2862016
0.20157462 0.026413426 -0.18633676 -0.26584747 -0.16156225 -0.07557745 -0.13260815 -0.1932294
0.033040363 -0.024563072 -0.13854054 -0.14589524 -0.08062413 -0.020684367 -0.057733595 -0.09488139
0.0011730442 -0.09249759 -0.089379214 -0.0771969 -0.08600868 -0.036160644 0.12961827 -0.017235717
-0.05175776 -0.058350265 -0.17719486 -0.12075674 -0.09236039 -0.035876393 -0.05983752 -0.3582015
-0.013761702 0.048437297 0.025115252 0.07413093 0.035377547 -0.001607984 0.039593905 -0.12812424
0.0049374048 0.048838876 -0.0017781195 -0.015598438 0.08384508 -0.015324961 -0.15434696 -0.13507181
0.09058208 0.14955606 0.23561898 0.0277239 0.02665844 -0.04579234 0.17095423 -0.18741174
0.007946034 0.13975802 0.18639863 0.10352764 -0.007903402 -0.03594109 -0.052592028 -0.3582343
-0.03940764 -0.067383476 -0.14700162 -0.20353755 -0.1644763 -0.20725563 -0.23485875 -0.26130813
-0.038813293 -0.10157807 -0.083296746 -0.09891526 -0.059574068 -0.23561555 -0.2541996 -0.21237125
0.036746155 -0.042162612 -0.030725555 0.03650758 -0.03572129 -0.19901271 -0.1852888 -0.1496551
-0.028574903 -0.018540759 -0.10446829 -0.023171386 -0.046653565 -0.052207086 -0.2863622 -0.44486055
0.026266811 0.14685461 0.12628886 0.1128638 0.06329343 -0.056939352 -0.15972732 -0.27779362
0.012889477 0.1308919 0.0016655433 0.010677768 0.11552141 0.10576656 -0.2776497 -0.1871415
0.05869527 0.11848516 0.20572446 -0.11429014 0.023330916 -0.029617088 0.053135384 -0.314552
-0.024907447 0.18623464 0.047734033 0.0072254078 -0.00680191 0.011285768 -0.1675119 -0.5362892
0.10849575 0.15093766 0.1087146 0.0543775 0.14404194 0.12407971 0.019419149 0.06276524
0.04188683 0.111405686 0.016988985 0.06813216 0.11481306 0.09090741 -0.11669582 0.029698538
0.072034486 0.06176626 0.06046645 -0.0071162754 0.04054646 0.0050881407 0.006935034 0.06876929
-0.043991826 -0.024924222 -0.02438213 -0.00388942 0.028174214 0.08972576 0.07525445 0.16606842
0.023749119 0.04019678 0.03187221 0.0047112056 0.07461565 -0.028393824 -0.0071091745 0.10547872
-0.050203808 0.0026798735 -0.029748349 -0.01024608 0.0097504305 0.023712808 -0.16626337 0.11137352
0.07581589 -0.089265205 0.020684233 -0.019218955 0.053750858 0.0030179953 -0.06804084 0.13471724
0.026961332 -0.005272779 -0.08918871 0.005637818 0.07645576 0.016297327 0.033049405 0.2301771

conv1.bias f4 [32]
00000000: 2afa 78be 0c60 8c3e adf6 0d3e 9631 f53c
00000010: bf4f 42be 0e71 113e 711e 33be 0d15 e23e
00000020: 1378 7a3e affa 423d 70ca 44be 5bdb 013d
00000030: c651 813b ef53 783e 31d8 2fbe 0bb1 27be
00000040: 138f e63b b933 d13d 56e4 083d 1efa d33d
00000050: 3c4c 863e c413 8d3e bff0 ddbc e11c 253f
00000060: db63 7c3e 25db cbbd 7a37 a23e 682b be3d
00000070: 3382 533e 701a 7dbe a295 9abd bfc9 b63e
-0.2431418 0.27417028 0.1386363 0.029930871 -0.18975733 0.14203283 -0.17492081 0.44156685
0.24459867 0.04760235 -0.19217849 0.031703334 0.0039465157 0.24250768 -0.17172314 -0.1637613
0.0070360987 0.102149434 0.033420883 0.103504404 0.26230037 0.27554142 -0.027092336 0.6449719
0.24647467 -0.09953908 0.3168295 0.09285623 0.20655136 -0.24717116 -0.075480714 0.35700795

conv2.weight f4 [64, 32, 4, 4]
00000000: 0da3 92bc 9185 82be 53d1 61bc d844 c9bd
00000010: 114b ccbd 7424 76be 0c39 973c c852 83be
00000020: d2c0 57bd 6f60 7cbe c866 96bd fe76 c5be
00000030: 5ae3 02be c2a7 12be b857 02be 1d0b fc3c
00000040: fd1b 8cbc 9850 343d 33ea 7ebd 2fd6 833c
00000050: 9286 dabd 0f9a be3c b55c 753e 1b8e eb3d
00000060: dcb5 f0bd 72cd 5bbe e5be c63d f788 94be
00000070: 30ad 633d 4869 b3bd df16 1bbe e9c5 ac3d
00000080: ad24 10be 1734 923d 9a29 e5bd b1fa 2e3e
00000090: e427 ba3d ad44 843d 9e5b aebd e4d6 303e
000000a0: 1e4c bd3c 729d c8be 838a 003d a2cb c13d
000000b0: 8f33 3a3d a898 a53e acb4 733e edd7 983c
000000c0: 84dc 32be 9b9b 9a3d 5aa8 82bc 6c10 8abe
000000d0: 4ccd 63bd f799 7bbc 9d4a dcba ae42 00be
000000e0: 37a6 023d d282 183e 36b8 3a3e 91dd e73d
000000f0: a914 a63d cedc bebd a5a3 ecbd a676 8cbb
00000100: 0920 56bd 7576 a03d 2396 4a3d aa95 e33d
00000110: e6a4 033d 66c2 3d3c 054a 97bd 56c4 0abe
00000120: 61be f8bd d940 a9bd 2947 6b3d 1e0b 35be
00000130: 5f68 bb3d 6694 b9bd c2bf 90bc 199c fcbd
00000140: aaac 84be 9243 223e d4e1 24be ca55 25bf
00000150: e6bc 60be 1f5c 893d 49cd e9bd 7fbf 2fbe
00000160: edd6 963d a357 3cbd de6c e2be fd8d c7bd
00000170: c5be d2bd f0d9 38bd ed26 d5bd 8e77 88bd
00000180: 8140 aa3c 1fb1 833d 084e 18be 1939 29be
00000190: 0b62 0cbc a94e 243d 16bf 8f3d 1db9 06be
000001a0: ba25 6d3d fef9 fe3d 1320 8fbd b481 8a3d
000001b0: 1d8e cd3b a449 c7bd 8de9 6fbd 6231 c23d
000001c0: c1ab 6abd df6e 333e 4cbc b53c e369 29bb
000001d0: 821f e13d 13a7 48be bf57 90bd f359 7d3e
000001e0: 441d b93d b317 863e e4e0 f33d febf 043e
000001f0: d81c a0bd fcdf a9bc e30b 713d b35c bbbc
00000200: b25d ac3e a7ed a93d b2c5 fa3d ff09 0cbe
00000210: 22d5 f0bc beaa dcbd ea29 84be 4e1d a6be
00000220: ce70 14be 2cab 7dbe 2577 17be 5dc1 6abe
00000230: 1d53 96be 668e 4b3e a6e4 2a3e 1eed aebe
00000240: 412f 61bc e510 4a3e 367b 3d3e bd8b 103e
00000250: 28ca 313e e17b afbd 2e01 cdbd 1121 56be
00000260: 1f7c c63d 8f95 883c 1bf5 34be 183d 97bc
00000270: 5717 6b3d c72d a43d f20a 3e3d a384 c23d
00000280: 3551 60be e09b 49bd 4373 97bd 73a0 46bd
00000290: d4f3 efbd 343b ccbb 0987 5a3d 1608 94bd
000002a0: d129 8fbd 4805 1fbd 44ba 39bd 50c4 95bd
000002b0: a253 83bd 0380 d9bc ef72 be3d dcf8 82bc
000002c0: 7b15 97bd ff54 b73d 86cf 003b 5864 a4be
000002d0: c8e4 0ebe 0812 c2bc 30a2 b2bc c6ad 39be
000002e0: cebc 01be 948a 1e3d e889 843d d68f de3c
000002f0: 71b5 5bbe 0d4c 28be 786b f7bd 2074 13be
00000300: 85bb 263d 14b0 d0bd 9d27 433e 4388 b8be
00000310: 0c9a 54be f6ae afbc ce48 abbd 82f0 73be
00000320: a018 71be 672e eb3d e971 0cbe 5334 65be
00000330: 6cd5 d4bd 95ad 823c 3237 183e fce0 86be
00000340: 8668 32be 354a 293d 23e6 803e 4b7f 7c3e
00000350: 80b7 1ebe e8cc 42be 0f84 c8bd cfb0 27be
00000360: 2eb7 07be e567 94be 94bb 1ebc aef9 77be
00000370: b639 383e 1a41 f53d a066 973c d241 b53e
00000380: 33b6 e33d f3fa 1abd 22ea c3bd 73bb bbbb
00000390: ee3f 34be 566d 4a3e bb68 033e 829f c5bd
000003a0: be8c 49be 3b2d 6bbd b178 9bbd 6055 50be
000003b0: fff5 d2bc 4e20 87bd 9786 d83d 973c dabe
000003c0: ad7c d23b 4fdd 103e aa34 673d 9510 163e
000003d0: ceac 9d3d a38f f03d a8e4 4f3d 84e3 e33c
000003e0: 48a8 6c3d 9e84 8d3d 9c6c 543a 6c60 b7bc
000003f0: 467e 873d c08b 213d 6d74 ffbc 9cad 97bd
-0.017900014 -0.25492528 -0.013782817 -0.09827584 -0.09975255 -0.24037343 0.01845982 -0.25649095
-0.052674122 -0.24646161 -0.07343823 -0.38567346 -0.1278204 -0.14321807 -0.12728775 0.030767018
-0.01710319 0.044022173 -0.06223507 0.016093342 -0.106701985 0.02326682 0.23961146 0.11501714
-0.11753437 -0.2146509 0.09704379 -0.29010746 0.055585086 -0.08760315 -0.15145443 0.08436186
-0.1407649 0.071388416 -0.111895755 0.17087819 0.0908964 0.06458411 -0.08513568 0.17269474
0.023107585 -0.3918262 0.031382095 0.09462668 0.045459326 0.3234303 0.2379939 0.018657649
-0.17466933 0.07549211 -0.015949417 -0.26965654 -0.05561571 -0.015356532 -0.0016806904 -0.12525436
0.031896796 0.14893654 0.18234333 0.11321557 0.08109409 -0.09319459 -0.1155465 -0.004286605
-0.052276645 0.07835094 0.049459588 0.111125305 0.03213968 0.011581993 -0.07387165 -0.13551459
-0.12145687 -0.08264322 0.05744091 -0.17680022 0.091507666 -0.09061508 -0.017669562 -0.12334461
-0.25912982 0.15846089 -0.16101772 -0.6458403 -0.21947059 0.06707024 -0.11416108 -0.17162894
0.073652126 -0.045982014 -0.44223684 -0.09743879 -0.10290293 -0.045129716 -0.10407815 -0.06663428
0.020782711 0.064302675 -0.14873517 -0.16525687 -0.008568297 0.04011408 0.070188686 -0.13156553
0.057897307 0.12450026 -0.069885395 0.0676302 0.0062730447 -0.09730843 -0.05857234 0.09482075
-0.057292704 0.17522763 0.022184514 -0.0025850467 0.10992338 -0.19594984 -0.07047986 0.24741344
0.09038785 0.26189956 0.11908129 0.12963864 -0.078180015 -0.020736687 0.058849227 -0.02287135
0.33665234 0.08297282 0.12244739 -0.13675688 -0.029398505 -0.10774754 -0.25813228 -0.32444233
-0.14496157 -0.24772328 -0.14791544 -0.22925325 -0.29360285 0.1987854 0.16688785 -0.3416528
-0.013744176 0.19733007 0.18504032 0.14115806 0.17362273 -0.0856855 -0.10009991 -0.20911051
0.09691643 0.016672878 -0.17671625 -0.018461749 0.057395305 0.08016544 0.046397157 0.09497955
-0.21905978 -0.04922092 -0.07395031 -0.04849286 -0.117164284 -0.0062326435 0.053351436 -0.07228105
-0.06990398 -0.038823396 -0.045343652 -0.07312834 -0.06412436 -0.026550299 0.092992656 -0.015987806
-0.07377144 0.089517586 0.0019654944 -0.32107806 -0.1395446 -0.023690239 -0.021805853 -0.18132696
-0.1266968 0.038706377 0.06471616 0.027168196 -0.21455933 -0.16435261 -0.12081045 -0.14399767
0.040706176 -0.10189834 0.1905808 -0.3604146 -0.20761889 -0.021445733 -0.08363496 -0.23822215
-0.2354455 0.1148346 -0.13715328 -0.22383241 -0.103922695 0.015951911 0.14864805 -0.26343524
-0.17422685 0.041330535 0.2517558 0.24657933 -0.15499687 -0.19023478 -0.09790813 -0.16376041
-0.13253471 -0.28985515 -0.009688277 -0.24216339 0.17990765 0.11975308 0.018481553 0.3540178
0.11118736 -0.03783698 -0.09566142 -0.005729133 -0.17602512 0.19768271 0.1283292 -0.09649564
-0.19682595 -0.057416182 -0.075913794 -0.20345068 -0.025752066 -0.065979585 0.10572546 -0.4262435
0.006423554 0.14146923 0.05644671 0.14654763 0.076989755 0.117461465 0.050755173 0.027818449
0.057777673 0.0691006 0.0008103342 -0.022384845 0.066158816 0.039439917 -0.031183446 -0.0740616

conv2.bias f4 [64]
00000000: d7a5 4dbe d9b5 31be dd08 78be 625e a63d
00000010: 0403 c2bc 58ea f5bb 6fa9 a8be a657 0dbe
00000020: 09e6 cf3d 3251 72bc 8306 18be 2065 c0bd
00000030: 407f b5bd d3e2 3f3e d6c7 fa3d a6bd 56be
00000040: f244 2abd aec2 12bc 7e99 b4bd 42d7 04be
00000050: 4178 ee3b 27db 7fbe c91f e4bd 3213 8cbe
00000060: 7a16 393e 720f 6abe 273c 84bd 29f7 ca3d
00000070: 6c08 8dbc f20a 87be 7fe9 25be ef6e babd
00000080: 38fb 48be f987 0ebe 36a5 b5bd 59b4 d73d
00000090: 2b2c 18be 71ff 1a3e 9b31 2dbd de19 69be
000000a0: cfcf 78bd 96a0 99be 571c 9abe 742c 7dbd
000000b0: 62d8 49be 2b14 df3c 679c a73e 6133 113e
000000c0: 2a8b a2bd 23fa d43d 7738 02be f5c1 273d
000000d0: 4818 9c3e aac2 22be 1149 f6bd c977 cabd
000000e0: fcdc 3fbd 16b1 8e3d 9b5c 84bc 9c3f ebbd
000000f0: ca64 d2bd 0fa9 673e 94b6 85be 0f96 87bd
-0.20082794 -0.17354526 -0.24222131 0.08123471 -0.023683079 -0.0075047426 -0.32941768 -0.13802966
0.101512976 -0.014789866 -0.14846234 -0.09394288 -0.08862162 0.1873887 0.12245147 -0.20970783
-0.041569658 -0.008957548 -0.08818339 -0.1297274 0.007277519 -0.24985944 -0.11138875 -0.27358395
0.1807498 -0.22857454 -0.06456786 0.09910423 -0.01721593 -0.26375538 -0.16202353 -0.0910319
-0.19627082 -0.13919057 -0.08869402 0.105324455 -0.14860599 0.15136506 -0.042283636 -0.22763774
-0.060745057 -0.3000533 -0.30099747 -0.061809972 -0.1971145 0.027231297 0.32736513 0.14179756
-0.079367 0.10399272 -0.12716852 0.040956456 0.30487275 -0.15894571 -0.12025655 -0.098861285
-0.046841606 0.0696737 -0.016157439 -0.11486742 -0.1027313 0.22623084 -0.2611586 -0.06620418

conv3.weight f4 [64, 64, 3, 3]
00000000: e7bb 553d 6c0b 293e 9281 71be cc1f abbc
00000010: ba4a 0dbc 8c2d 90be 8078 013e 3655 b2bc
00000020: 9969 22bd 8f78 53be f969 493e ad85 43bd
00000030: 89d5 3dbe 1a0e 02bd 40ad 0a3d a4ea 8c39
00000040: 6c0b 62be 002f d33d 3e38 90bb 2dd1 e4bd
00000050: c5a6 053c 5c42 a23d 9ae5 1c3e 526a b9bc
00000060: 504d 75bd 2826 8fbd 6ca5 43bd 1f97 26be
00000070: 22b9 913d ef39 3a3e 48bd 3e3d 7892 5c3e
00000080: 3407 6c3d 74fe 643c 2329 85bd 0c4a 61bb
00000090: 4327 803d c0dc d03d abea fa3d c830 7cbd
000000a0: 9dfc 64bd 4b6d 6e3b 28c5 dbbe f5f2 a73d
000000b0: 3094 12be 95c3 9c3d 1ea1 823d 7f2a 963d
000000c0: 9c80 93bc dafe 983c c434 2fbd cc12 dfbd
000000d0: 4dc9 f23c b530 77bd 073f 99bc d1ff c43d
000000e0: 2272 903d ef64 163e 425c 1fbc 128f 713d
000000f0: 1c4e 14bd c2cf fd3b d402 3cbe aa85 f9bb
00000100: 45e2 0d3d a427 28be aedb d5bd d1fa 853d
00000110: 62cb 42bd fb94 df3d c54b d83d 0165 373c
00000120: 7645 ec3c 6c6c 63bd 513b 77bb a23f 6c3d
00000130: 6da9 b7bb f16d 453c d48e c23d e170 3b3e
00000140: dd78 0bbf 6557 8c3b 7553 6ebb e875 6cbc
00000150: 4998 d33d 726a ca3b 8967 19bc 0772 5abe
00000160: 1c60 ce3d 304b 24bd a7cd f1bc ce45 8abb
00000170: b797 c6bb a1d4 933c 6dcb be3d 4703 80bd
00000180: 05e8 383d ac24 0c3e 2c49 603e a9e4 54bd
00000190: 00b7 6fbe 2134 c2bd f2e9 203e b8d5 98bd
000001a0: c2df 043e c3e6 8d3d 0e41 443e ff71 84be
000001b0: ae9d 1abd 7c74 04bd b877 483d 590f ff3d
000001c0: 4435 88bd 4b45 a73d 4697 6c3c ef26 cbbd
000001d0: 899f 753d 23a6 043c a895 e43c c57b 69bc
000001e0: c011 d63d b8e0 e03b 6c45 e63c fe69 a43d
000001f0: eddd 3e3c d55b af3d 4635 fcbd 45d9 0b3e
00000200: e399 45bd fe07 533e 75b4 1c3d 790e 783d
00000210: 44de fabc fa00 183d cea8 23be e858 84bc
00000220: d0eb 5cbd 964a 97bd d41d c83d 3951 debc
00000230: f001 c63d d319 f03e 82f0 1f3e ed05 d33d
00000240: 9183 17be fafd 173e bdf0 9d3e f972 0f3c
00000250: 702f 103b 47a1 5fbe 97b6 e93d c8f2 1c3d
00000260: d245 b8bd ae58 b83c 79a6 ca3d 9a19 293d
00000270: 3c6b babd c7eb cc3c 0807 fdbc 98b8 92be
00000280: 5df1 ebbd c2ec b1bc 72b7 88bd 7878 86bd
00000290: a80d a73d 0360 de3c 1f36 19bd 385b 033c
000002a0: fc2e ec3c 9f38 83bd c078 983c 65e6 7dbe
000002b0: 5400 a1bd e250 0a3e c805 9dbe d25e c7bb
000002c0: b05f dcbb 93b2 24be 3ad6 43be 51c4 1fbe
000002d0: 71dc d53d e6a9 473e e8d3 d83d a6e0 abbe
000002e0: 2dc4 f73d f38c 0f3e 91f0 67be 23fa b1be
000002f0: 5251 273d c12f 31bd 2e6f f13c a5e2 593c
00000300: bb6f 1fbe cb96 1f3d 99af 65bd 70d1 b6be
00000310: 6af2 0a3d f93e 5d3c 74ad f73d c6f0 d23d
00000320: 9f09 58bc 2a21 b1be e267 b03d 752d 61bd
00000330: b645 84be f544 42be 5cb6 b6bb d019 b23d
00000340: 47e6 8b3d f978 4dbd 77f0 32be 912e fd3d
00000350: 75fc dbbd 66ab 973d 0822 2c3d a84e d53c
00000360: 9e72 b63d 5197 1cbd f3a7 793d 9e92 4d3c
00000370: 44ce 3e3d 7f93 1bbe 12ca b23d d1bf 06bc
00000380: cce5 48be c2b9 cd3d 7490 583e 216f 82bc
00000390: b1b2 6cbb 0824 e73d 88f0 8ebd 8917 1b3e
000003a0: 67f0 f03d 9e6e c53c 2c56 46bd 8a6e 94bc
000003b0: 2ad6 70bd 319e 1e3d 000c fabd bced 58bc
000003c0: f19d 81be 1ce4 00be 92b9 c4be ee38 85be
000003d0: 4d06 d6bd 9fd0 613d 3e25 d9bb 62b5 a23d
000003e0: 84a2 0b3e 1a21 033e f892 3dbd 3556 99be
000003f0: 0297 64bd 5d3f 6cbd 5c1d 2abc 2b87 853d
0.05218115 0.16508263 -0.23584583 -0.020889185 -0.008623773 -0.2815975 0.12643623 -0.021769147
-0.039651487 -0.20651458 0.19669332 -0.047734905 -0.18538488 -0.03175173 0.03385663 0.00026877702
-0.2207467 0.10311699 -0.004401236 -0.111727096 0.008157437 0.07922813 0.15321961 -0.022633705
-0.059888184 -0.069896996 -0.04776518 -0.16268586 0.071153894 0.18186162 0.04656723 0.21540248
0.057624057 0.013976682 -0.06501987 -0.003437641 0.062574886 0.10198355 0.122517906 -0.06156996
-0.055904973 0.0036381062 -0.42923856 0.08200637 -0.14314342 0.07654492 0.06378387 0.07332324
-0.018005662 0.01867621 -0.04277493 -0.10892257 0.029637003 -0.060349185 -0.018706812 0.096191056
0.07053019 0.1468694 -0.009726586 0.058974333 -0.036207303 0.007745714 -0.18360454 -0.007614811
0.034639616 -0.16421372 -0.10442291 0.0654198 -0.047557242 0.10917088 0.10561327 0.011193515
0.028841715 -0.05552332 -0.0037724564 0.057677872 -0.005604914 0.012050138 0.094998986 0.18304779
-0.544813 0.004282879 -0.0036365662 -0.014432408 0.103317805 0.00617724 -0.009363064 -0.2133256
0.10076925 -0.040110767 -0.029517008 -0.004219747 -0.0060605663 0.018045725 0.09316144 -0.06250625
0.045143146 0.13685864 0.21902913 -0.05197588 -0.23409653 -0.09482599 0.15714243 -0.074626386
0.12975982 0.0692878 0.19165441 -0.25868222 -0.03774803 -0.03233765 0.048942298 0.12454099
-0.066507846 0.081675135 0.014440363 -0.09919535 0.059966598 0.008096251 0.027903393 -0.0142507
0.10452604 0.006862726 0.028109275 0.08028029 0.011649591 0.085624374 -0.123148486 0.136571
-0.04824246 0.20608518 0.038258035 0.060560677 -0.030623563 0.037110306 -0.15982363 -0.016155675
-0.053935826 -0.07387273 0.09771314 -0.02713834 0.09668338 0.46894702 0.1561909 0.10303865
-0.14796282 0.14842978 0.3084773 0.008755439 0.0022000931 -0.21838866 0.114117794 0.03831747
-0.08997692 0.022503223 0.098950334 0.04128418 -0.091024846 0.025014771 -0.030887142 -0.2865646
-0.11520646 -0.02171934 -0.066756144 -0.06565946 0.081569016 0.027145391 -0.03740513 0.008017354
0.028830998 -0.06407284 0.018612266 -0.2479492 -0.07861391 0.13507417 -0.30668473 -0.0060843015
-0.006725274 -0.16083746 -0.1912469 -0.15602233 0.104424365 0.19498405 0.10587293 -0.3356983
0.120979644 0.14018612 -0.22650363 -0.34761152 0.040849037 -0.043258432 0.02947196 0.013298665
-0.15569966 0.038962167 -0.056075666 -0.35706663 0.03392259 0.013503783 0.120936304 0.1029983
-0.013185888 -0.34595615 0.08613564 -0.05497499 -0.25834435 -0.18971618 -0.005575938 0.086963296
0.06831031 -0.050164197 -0.17474543 0.123623975 -0.10741512 0.074057385 0.042024642 0.026038483
0.0890858 -0.038230244 0.060951184 0.012547163 0.04658343 -0.15192984 0.08729948 -0.0082244435
-0.1961891 0.10045196 0.21148854 -0.015922131 -0.003611725 0.11286169 -0.069794714 0.15145697
0.11764603 0.024100598 -0.048422024 -0.018119115 -0.058797993 0.03872508 -0.1220932 -0.013240274
-0.25315812 -0.12587017 -0.3842283 -0.26019996 -0.104504205 0.055130597 -0.006626754 0.07944752
0.13636214 0.12805596 -0.04628274 -0.29948583 -0.055808075 -0.057677615 -0.010382976 0.06519922

conv3.bias f4 [64]
00000000: 1d1f 34be eb2c 173e 5a8b 7a3e 57c9 c9bd
00000010: 063d d93d ef49 e53d 0e39 f1bb e188 e83e
00000020: d82d 903d 2de0 b2bc eaf0 6d3e 4ade 8d3d
00000030: 419c 8fbc 7da6 b6bc 7b76 4ebc ddc7 c33d
00000040: ef1f 313e f726 c6bd fbe8 483e b19d 6cbd
00000050: 83f2 8bbc 85a1 2b3e f161 5b3d ecbd b83d
00000060: 3e43 8c3e 26c3 563e 7125 cf3d 9d47 44be
00000070: fe97 62bd 5ff5 1b3d e89c 233e a0a1 3f3e
00000080: 4482 813c 3e0d f53c eb89 3b3d 4500 71bd
00000090: 5680 33bd 155a ca3c 60c8 633e 51bf 33bd
000000a0: b551 193e 1b94 983c 16e3 323d a972 eabb
000000b0: 13f4 223d f629 363e f6c0 5fbd d459 7d3c
000000c0: 5d9b 943e 5e9c 64bd 594f b03d ba01 553e
000000d0: 2812 31bb 3e69 39be c3dc 663d 8cab 013d
000000e0: 0858 a73c 6b78 8b3e 711f 023e f2c8 2cbe
000000f0: 312a b2bc 7835 473d ca82 43bd 301a 9e3d
-0.17589994 0.14763229 0.24467221 -0.09852856 0.106073424 0.11195742 -0.007361538 0.4541693
0.07039994 -0.021835411 0.23236433 0.06927164 -0.017530562 -0.022296185 -0.01260149 0.09559605
0.17297338 -0.09675401 0.19620125 -0.057767574 -0.017083412 0.16760834 0.0535602 0.090206
0.27395052 0.2097288 0.10114563 -0.19167943 -0.055320732 0.0380758 0.15977824 0.18713999
0.015809186 0.02991354 0.045785826 -0.058838148 -0.043823563 0.024701158 0.22244406 -0.043883625
0.14972575 0.01862531 0.043673597 -0.007154782 0.03978355 0.17789444 -0.05462738 0.015463311
0.29024783 -0.055813186 0.08608884 0.2080144 -0.0027018879 -0.18106553 0.05636288 0.03165774
0.020427719 0.2724031 0.12707306 -0.1687353 -0.021748634 0.048634976 -0.047732152 0.077198386

fc1.weight f4 [256, 256]
00000000: 6746 98bd 66da b2bd 738d e7bc ca92 20bd
00000010: 919e 47bd c2c0 643d 9a2c 6abd c3cf 943d
00000020: a515 84bd 28ef b7bd aef6 a6bd 236d dfbd
00000030: ef54 853c 4add 14be f518 423b e4d1 2dbd
00000040: 2afd 9bbd d22d 8f3c 3291 21bc 3a6d 553b
00000050: 7b59 6c3d 16d9 9cbd 1efd 41bc 9ed9 91bd
00000060: 1810 90bd 4353 e0bb 848c 1fbe 649b 0fbe
00000070: 05e5 5fbd ae5c dfbd 75ea 213c c7ba d33c
00000080: e3fa 3f3d e3ce 96bd c469 093b ba0a c9bd
00000090: de9e 843c e98e b7bd 574d 92bd c679 8bbd
000000a0: bee9 b23d 82d4 80bd 418a 47bd 921c d23b
000000b0: 09f8 49bd 9956 e4bd a320 83bd 7a61 643c
000000c0: a827 d93c 7d2b 9abd 1de7 76bd ba9f 8cbc
000000d0: 411b 8e3b d3f3 723a 79f9 b33c ca6c 5bbd
000000e0: c3b8 a6bd 0dd8 d8bc 9352 07be 4e2b 24be
000000f0: 5092 8fbd 5886 7cbc e91f 03bd e6df c33c
00000100: 2989 6a3d 5685 ccbd a19b f4bc d386 98bd
00000110: 5d56 b4bc c070 6abc 5487 8a3d ef78 883d
00000120: f32b 73bd 2f02 d3bd 618b 873c b7e7 483d
00000130: c373 bbbd a082 dd3c 45f7 383b f16b 1abd
00000140: fb95 88bd 72b3 51bd 495b 1c3c 7b3a 523d
00000150: 1350 b1bd 4604 c1bd a5c0 edbd 424c 123c
00000160: be55 82bd cf86 d6bc bc0f 57bd d1ec 5cbd
00000170: 8ba5 dfbc 3b79 8f3d 97e5 76bb 438a 23bd
00000180: fcc5 38bd 7aac 6fbd 6d8a 6abd 20bd 8c3c
00000190: 1da0 273d cce7 633b 5ce1 cabc 27cc 8e3d
000001a0: 5fdc 1abd 4fda c9bd 3b1e 8a3c 84ef 4bbd
000001b0: 4a88 34bd d8cf 04bd 1f7d a3bd 3a9b a73c
000001c0: b7e7 0dbe b180 f2bd 2bd8 97bd b9b7 953c
000001d0: e16b a7bd a261 7ebd 1368 4b3d 65de 273a
000001e0: 2e5f 74bd 616f c2bd f495 7ebd c5b9 e8bd
000001f0: 5663 173d d327 c83d 01f0 9abd 0bfd fe3c
00000200: b542 c9bc a642 213c 8865 e13b 2ee7 a63c
00000210: b25b 693b f7ea 1fbd b1a0 29bd c4e7 a7bc
00000220: e01d abbd 4a92 26bd e08c 2bbd 4690 97bb
00000230: fc41 b0bd 16c8 77bd fec3 0bbe 5815 2e3b
00000240: df11 113c 0230 61bd cf22 5fbc 42aa debc
00000250: ab68 a9bd 9944 1dbe 2ba7 55bc dfd8 1ebc
00000260: 2694 c93c 0c35 c6bc 3fef 5b3b 7ea5 dd3c
00000270: bf87 37bc b281 a83d a2b2 48bd 16c2 29bd
00000280: 83de c9bd 7cb9 f1bb cc77 0fbe 37f0 a03c
00000290: 5d58 95bc c163 06bd 60e5 cabc e1c0 e9bc
000002a0: 1d5a 47bd c8c3 a8bd 1f6d 62bd cdb8 2abd
000002b0: 433b e43c 1849 cebc 4e47 863c 9aa3 08bd
000002c0: 73fc e2bc 97fd 5abd 69ed 55bd 5e82 243d
000002d0: b8cd 15bd 0905 90bd 377e 23be 1542 93bd
000002e0: 1f77 30bd 56a4 aabd 6561 3f3d 7523 0a3c
000002f0: a1b8 23bd d55d 24bd 5f1f e8bb da50 cbbd
00000300: 121c bf3c 1ee8 413d a64a 70bc 9f81 2dbc
00000310: 5fd6 35bd 048b 12bd dcdb a7bd e62a 24bd
00000320: 1958 18bd 8a2d 8bbc 50ef 273d ba5f 40bc
00000330: 7bde c9bd a08b ae3c 1530 c2bd 9c84 ccbc
00000340: 13f1 e83c 8acc 25bd 47ad 96bc 46a9 ee3b
00000350: fcb2 b33c 4171 9abb e335 34be 00d2 b2bd
00000360: 0608 cfbc 4b7a 0bbe 8ac4 52bc 5a86 c1bd
00000370: a404 57bc 2396 883d 69dd 7fbb 3806 d6bd
00000380: bc6b cabd 45ba 213b fe84 cebd 895b e1bd
00000390: 44b8 193c ad1e 363d be64 23bd 48d3 73bd
000003a0: 9c49 693c f17f cbbc c3f0 6b3d 84b6 d5bc
000003b0: 3f16 fabc 6f54 a9bc 8d31 88bc 441c c13a
000003c0: 0b08 bfbc a1d1 9dbd a0ec 85bc 8509 73bd
000003d0: 4c6f 89bd cf98 04bd c5a5 843c 3aa3 12be
000003e0: e833 aa3b ef81 2a3d 785b 483d cc19 90bb
000003f0: d4e3 27bd c81e cfbd 106f 873c cbf5 a23c
-0.07435303 -0.087330624 -0.02826569 -0.03920249 -0.048735205 0.05584789 -0.05717144 0.0726619
-0.06449441 -0.08981162 -0.08152519 -0.10909488 0.016275851 -0.1453754 0.0029616926 -0.042436495
-0.076166466 0.017477904 -0.009861277 0.0032566325 0.057702523 -0.07658593 -0.011840133 -0.07121585
-0.0703432 -0.006845863 -0.15580946 -0.1402412 -0.05466177 -0.10906349 0.009882559 0.025845898
0.046870124 -0.07363679 0.0020967582 -0.09816499 0.016189035 -0.08962805 -0.07143658 -0.06810336
0.08735989 -0.06290533 -0.048715834 0.0064120973 -0.04930881 -0.1114933 -0.06402709 0.013939256
0.026508167 -0.07527826 -0.060279 -0.017166007 0.004336745 0.00092679 0.021969544 -0.053570546
-0.08140709 -0.026470209 -0.13215093 -0.16032144 -0.07010329 -0.015412889 -0.032012854 0.023910474
0.057259712 -0.09986369 -0.029859366 -0.07447591 -0.022013837 -0.014309108 0.06764093 0.06663691
-0.059368085 -0.10303151 0.016545953 0.049049105 -0.09152939 0.027039826 0.0028223556 -0.037700597
-0.066692315 -0.051196523 0.009543248 0.051325303 -0.08657851 -0.09424643 -0.1160901 0.008929314
-0.0636401 -0.026187329 -0.05250524 -0.053936783 -0.027300617 0.07005545 -0.0037673467 -0.03992678
-0.045110688 -0.058514096 -0.05726092 0.017180026 0.04092418 0.0034775613 -0.024765663 0.06972533
-0.03780782 -0.09856092 0.016860118 -0.049788967 -0.044075288 -0.032424778 -0.07982849 0.02045976
-0.13857923 -0.11840952 -0.07414278 0.018276082 -0.08174873 -0.06210483 0.0496598 0.0006403684
-0.059661083 -0.094939 -0.062154725 -0.11363558 0.03695997 0.09773221 -0.07565308 0.03112652
-0.024567941 0.00984255 0.0068785585 0.020373907 0.0035607633 -0.03904244 -0.041413013 -0.020496257
-0.083553076 -0.040666856 -0.041882396 -0.004625353 -0.086063355 -0.06049355 -0.13648984 0.0026563015
0.008854358 -0.054977424 -0.013619139 -0.027180795 -0.08271917 -0.15358199 -0.013040344 -0.009695261
0.024606775 -0.024195217 0.003355935 0.027056452 -0.011201798 0.082278624 -0.048998483 -0.04144486
-0.09856894 -0.007376848 -0.14010543 0.019645793 -0.018230611 -0.032809976 -0.024767578 -0.028534355
-0.048669923 -0.08240467 -0.055279847 -0.041680146 0.02786029 -0.025181338 0.016391423 -0.033359148
-0.027708268 -0.0534645 -0.052228365 0.04016339 -0.03657314 -0.070322104 -0.15966116 -0.071903385
-0.043082353 -0.08332126 0.046723742 0.008431305 -0.039970998 -0.040128548 -0.007083818 -0.099275306
0.023328815 0.047340505 -0.014666235 -0.010589986 -0.044393893 -0.035777107 -0.08196232 -0.040079974
-0.03719339 -0.016989488 0.04099971 -0.011741573 -0.09856888 0.021306813 -0.09481827 -0.024965577
0.028435266 -0.040478267 -0.018393172 0.0072833626 0.021935932 -0.004713208 -0.17598681 -0.087314606
-0.02527238 -0.1362087 -0.012864241 -0.09449454 -0.013123665 0.06669261 -0.0039041883 -0.10450405
-0.0988383 0.0024677676 -0.1008396 -0.11003787 0.009382311 0.04446285 -0.039890997 -0.059527665
0.014238741 -0.02484128 0.057602655 -0.026088007 -0.030528186 -0.020670144 -0.01662519 0.0014733155
-0.023319265 -0.07705999 -0.016348183 -0.05933525 -0.06710681 -0.032372292 0.016192326 -0.14320078
0.005194176 0.04162782 0.048915356 -0.0043976065 -0.04098876 -0.10113293 0.01653245 0.019892594

fc1.bias f4 [256]
00000000: 7fbf f7bd 5b6f 3cbc de2f 08be 9096 9abd
00000010: 084b 80bd 8743 07bc bc0c dc3e abc8 0abd
00000020: c29d 59b9 4a18 a9bd e540 85bd de97 ec3c
00000030: f1c4 18bd 5633 0bbe d6f1 0a3d e1c6 8dbd
00000040: 4ffd c4bc fc72 083d f06a e8bd 7347 54bb
00000050: 5664 a3bd 18f3 f53e e331 8cbd ff3c 78bd
00000060: 8eb3 a2bd d923 013b 3890 9abd f04d a13c
00000070: 3f9b 55bd f165 c1bd 80a9 3abd 8b96 e83b
00000080: 1b3b cabd 4bcb 84bd 0d78 b1bd c01a d0bd
00000090: 74a6 dbbd 9913 77bd da12 b3bd 5f96 26bd
000000a0: 3e34 ccbb b378 16be ef1d 3abd e7f3 97bc
000000b0: d3f6 e0bd eaf7 9bbd a0db 9c3c ba06 9dbd
000000c0: 0822 fcbd fcb6 1cbd 5f91 acbd ff37 e9bc
000000d0: c954 85ba e4d6 94bd d58b 7ebd b34f 813b
000000e0: 37c7 253e 3557 683d 4d72 c2bd f4b6 44bd
000000f0: 92c3 acbd afb1 d6bc 409c 47bb 28e8 5dbd
00000100: ddef 59bd e86e 503d 2dc3 8dbc 39d7 29bd
00000110: 6c67 013e 76a0 f4bd 00ba d2bd b586 97bd
00000120: a442 c8bd 981f a33e b277 9abd 9579 0dbe
00000130: c334 343d f1ad a03c eae8 88b8 aea8 b1bd
00000140: 2460 d0bd c1d6 bdbd 3127 4a3d 6b3c 08bd
00000150: 180f 88bd a4bb adbc 6510 8ebb 622a 44bc
00000160: 7655 09bd 154a 8abd 8339 f7bc fe77 983d
00000170: aaa8 003e ad44 20ba 28ba afbd 4bee 08bd
00000180: e99f 183d 4585 ae3c 452d 11bc ff4a dbbd
00000190: dafd 0dbe 002d 26bd 36b2 80bd e341 e1bc
000001a0: a63c b43d 87b2 92bd 45a3 0c3d 8da7 adbd
000001b0: 50f0 63bc b9d4 fa3d d332 cdbd cfa5 f3bd
000001c0: d148 f9bc 4cbb d33c 8438 7dbd 1d2e dbba
000001d0: abc9 4ebd 002c 9e3c f726 2ebd eb2e 9a3e
000001e0: 132c 5fbc c8f4 ad3b 3efc 60bd a362 75bd
000001f0: 2bf2 c0bd 369d aa3e e952 8bbb 12c0 853d
00000200: 4f14 a7bd b499 623d f397 80bd c889 eebd
00000210: ef30 9e3b 1bc3 ccbc 85d9 a9bd 7e99 84bd
00000220: c2cf 2ebd a74d 24bd 3c00 2fbd c7a0 c9bd
00000230: c967 d5bd 1f68 39bc 8758 33bd b5de 22bd
00000240: 880c 573b fde3 0fbd 478d c6bc 0722 af3b
00000250: e12f 9d3c 4812 073d cc0f 063d d524 aabd
00000260: 4344 023d 51fa 7ebc 5318 6fbd 019b f5ba
00000270: 0e22 4a3d 57ba 9abd 58e3 1dbd 9a9a 81bd
00000280: 170b dfbd 08c1 803d 455c ef3c 75b0 02bc
00000290: c331 23bc befc d53c 5f37 78bc 6135 803e
000002a0: 3cb0 a93e 0918 a8bd f5b3 8c3e f3be 5cbd
000002b0: f607 e0bb ddd9 493c 24ed d13c 682f 45bd
000002c0: 3068 a83d e5fe 1fbe bfcc cfb9 2d84 83bd
000002d0: 8b52 b3bd 1499 40ba 7236 eebc e775 0abd
000002e0: 5cb6 abbd 0fc6 ebbc 7b04 5dbd fe7c a83d
000002f0: 280a 07bd 1b42 27bd 4e93 be3d 1e99 15be
00000300: ac8a 523e b96c 1cbe b1dd ccb9 bca7 b6bd
00000310: b6b9 7dbc 82fe 0bbd 102e c3bd a4c7 783d
00000320: ba26 aabd 306d c9bd 4e28 c03b 610a 32bd
00000330: 39ab 2ebd 3b57 57bc 7d34 1d3d 0541 2cbd
00000340: c42b 05bd 0597 5d3e 1305 55bd fbb3 39bd
00000350: 01fd 7cbd 075c fa3d 159b a23c c5a3 18be
00000360: 4df3 0cbb 3377 bd3d f3d0 813d 1674 6bbd
00000370: de0d d4bd da53 cc3c e8d8 5abd 5ea3 af3c
00000380: e004 0abe 776c d2bc ddb1 71bb 1dec 413b
00000390: bd40 1abd aa33 fc3b 9ca0 c6bd 38eb b4b8
000003a0: 07dd 103c 1024 72bd b629 48bd e9c3 5abd
000003b0: cf5c a6be 8b85 f93e 8061 2b3c 9872 bc3d
000003c0: 191c 8fbd 76e2 94bd 7ce1 9d3b 6234 3bbc
000003d0: 326b c5bc 9b65 513b 56e2 bebd e39a 173d
000003e0: 0100 f23e 978b e2bd ad66 8aba a236 263c
000003f0: 3533 96bd e577 c53e 291e f3bd a7a6 45bd
-0.12097072 -0.011501159 -0.1329951 -0.07548249 -0.06264311 -0.008255846 0.42978466 -0.03388278
-0.00020753502 -0.08256586 -0.06506518 0.02888101 -0.037297193 -0.13593802 0.03392204 -0.06922699
-0.024046568 0.033312783 -0.11348522 -0.003239122 -0.07978122 0.48037028 -0.06845453 -0.060605045
-0.079444036 0.0019705205 -0.07547039 0.019690484 -0.052150007 -0.09443272 -0.045571804 0.0070980242
-0.09874555 -0.064840876 -0.08665476 -0.10161352 -0.10725108 -0.060321424 -0.0874383 -0.04067075
-0.0062318137 -0.1469448 -0.045438703 -0.018548919 -0.10984578 -0.07615645 0.019147694 -0.076672986
-0.123111784 -0.038260445 -0.08426165 -0.028469084 -0.0010172363 -0.0726755 -0.062145073 0.0039462685
0.16189276 0.056723792 -0.094944574 -0.04802604 -0.084357396 -0.026207773 -0.0030458122 -0.05417648
-0.053207267 0.05088702 -0.017304981 -0.041465018 0.12637109 -0.11944668 -0.10289383 -0.0739874
-0.09778336 0.31860042 -0.07542361 -0.13815911 0.04399563 0.019614192 -6.528369e-05 -0.08674751
-0.10174587 -0.09269477 0.049353782 -0.033260744 -0.06643504 -0.021207638 -0.0043354505 -0.0119729955
-0.033528768 -0.06752411 -0.03017879 0.07444762 0.1256434 -0.0006113749 -0.08580428 -0.03343038
0.037261877 0.021303782 -0.008860891 -0.10707664 -0.13866368 -0.04057026 -0.06283991 -0.027497238
0.0880063 -0.07162958 0.034335393 -0.084792234 -0.013912275 0.12247605 -0.100194596 -0.1189686
-0.03043023 0.025846146 -0.061821476 -0.0016722117 -0.050485294 0.01930809 -0.04251763 0.3011392
-0.013621348 0.005308721 -0.054928057 -0.05990852 -0.0942119 0.33323067 -0.004251827 0.06530775
-0.081581704 0.055322364 -0.06278982 -0.116473734 0.0048276107 -0.024995377 -0.08293442 -0.06474589
-0.042678602 -0.040113118 -0.042724833 -0.09845119 -0.10420186 -0.011316328 -0.043785598 -0.03976317
0.0032813866 -0.035129536 -0.024237288 0.0053446325 0.01918787 0.03297642 0.03272991 -0.083078064
0.03180338 -0.01556261 -0.058372807 -0.0018738211 0.049348883 -0.07555073 -0.03854689 -0.06328316
-0.10890787 0.06286818 0.029218802 -0.007976641 -0.009960595 0.026121493 -0.01514992 0.25040725
0.3314227 -0.08207709 0.27481046 -0.05389304 -0.0068368865 0.012320009 0.025625773 -0.048140913
0.08222997 -0.15624578 -0.00039634664 -0.06421695 -0.08755978 -0.0007347029 -0.029078696 -0.033803847
-0.08384392 -0.028780965 -0.05395935 0.08226965 -0.03296867 -0.040834527 0.0930544 -0.14609191
0.20560712 -0.1527585 -0.00039075085 -0.089187115 -0.0154861715 -0.034178264 -0.0953027 0.060737267
-0.08308168 -0.09835279 0.0058641797 -0.04346693 -0.04264376 -0.013143356 0.038380135 -0.042054195
-0.03251244 0.2163964 -0.052006792 -0.04533766 -0.06176472 0.12224584 0.01984934 -0.14906223
-0.0021507323 0.09251251 0.06338682 -0.057483755 -0.103542075 0.024942327 -0.053429514 0.021440204
-0.13478422 -0.025686486 -0.0036879696 0.0029590197 -0.037659395 0.0076965885 -0.096986026 -8.626882e-05
0.0088417595 -0.059116423 -0.048867904 -0.05340949 -0.32492682 0.48734698 0.0104602575 0.092015445
-0.06987781 -0.072697565 0.0048181396 -0.011426063 -0.024098966 0.003195143 -0.09320514 0.037012946
0.47265628 -0.11061781 -0.0010559164 0.010144861 -0.07333986 0.38568035 -0.11870987 -0.048254635

fc2.weight f4 [11, 256]
00000000: e1aa d6bd 1bd3 d3bd f2c0 38be 3656 91bd
00000010: 4b9f 463e 32b9 3a3e 7dfa 153e c3e3 0b3e
00000020: 4b6f f93d c96e 1e3e bf74 d53d 415a 803d
00000030: 36d9 683d 4c2a dd3d a7a6 463e 6f00 013e
00000040: 69b6 133e 6a02 0a3e bc66 11bd 96c8 103e
00000050: 7def 24be 5983 293e cc16 88bd 7095 b23d
00000060: e8b9 313e 3373 0f3e 86e3 003e a9bc 1a3e
00000070: 3571 2b3e 5b69 0ebe 9472 e63d 233c 02be
00000080: e733 9a3d 845e 2e3e 6b7c 913e 86b6 d83d
00000090: 8ecf bd3d 095c 3fbe 6621 e4bd 2141 e83d
000000a0: 0af0 7b3d 9c2b 223e de7b 253e 40f0 91bd
000000b0: 0eb8 f1bd fdea 063e 08d9 c9bd ebc7 363e
000000c0: 455a 7d3d 916a d0bd 70a9 b0bc 20e3 093e
000000d0: a366 183e c077 bc3d d08a 61be 2d04 253e
000000e0: 777f 823e 9a9f ccbd 3c32 1f3e 6fa1 63be
000000f0: 23bd c1bd 187e 1f3e 4571 ce3d 4993 eabd
00000100: 93b4 233e efe3 6c3e 74fd e63d 614a 303d
00000110: a12b 113e 5f05 b33d 11ff 3a3e 5922 973d
00000120: 263f 003e bf7f 263e f2eb ecbd 984a 0abd
00000130: 86d9 983d bcaa 893e e5b1 0a3e 8bb8 533e
00000140: 7e7b c2bd b80e 193d a732 ba3d dca5 4a3e
00000150: df85 1c3e 0218 083e 1df8 3f3e 5ba2 babd
00000160: 885c 9a3d 0385 e0bd bea9 133e 400a f33d
00000170: 5725 bb3e a0ec 2c3e fa02 4d3e caca 843d
00000180: 51f9 f73d ab7c 393e 4178 ce3d 7f2d 28be
00000190: fd21 c4bd 2d63 1f3d beed 03be c882 b53d
000001a0: 8e2a aebd ecd4 d9bd e7a9 08be a0f7 e9bd
000001b0: f82c cc3d 4f46 f23d e919 213e 8c9d 98bd
000001c0: 3dc4 1d3e 9412 093e bcde b03d abb7 033e
000001d0: c9cd 143e b264 f83d 9494 293e 117a 403e
000001e0: 9ef9 d0bd 10c2 e23d 05c3 31bd 7651 4bbd
000001f0: 1ca0 2fbe eb29 4f3e a9a1 313e e091 153e
00000200: 1059 be3d 2180 743e 6e71 223e 3df5 5c3e
00000210: b0f3 f4bd 49fd 9e3d e919 213e 04b1 30bd
00000220: 6686 df3d dfff 433d 0676 ae3c e637 45bd
00000230: 4e1a a8bd 7320 45be 90f6 f13d be50 f9bd
00000240: 3a30 e43d 475e d6bd cdcd 0a3e 72e0 c7bd
00000250: 72a6 103e 474e f33d bd95 713b 799a bebd
00000260: c10f 153e c019 343e f7d7 a0bd 00bd f63c
00000270: 8802 2a3e c96f 3d3d e8b5 4e3e f7c4 92bd
00000280: c3a3 2cbe ba16 0a3e 9a38 9cbd 1e25 a23d
00000290: 3167 e43d e19d 243e effa 143e 7de2 603e
000002a0: 1f60 543e cadc 043e bc8c 8c3e e9fc 1a3e
000002b0: 02ec 343e 7307 4d3e 8c4a 243e f444 7ebe
000002c0: 8fa2 0a3e cc27 04be 2c90 853d 4986 393e
000002d0: 88f7 183e 74f1 3b3e 7eb2 d93d b3b0 e13d
000002e0: e5be 2ebd 3243 1cbe 4e74 a93d fc3b 19bd
000002f0: 251c 1d3e 6d46 613d 3a80 693e 3065 86be
00000300: cd29 243e 70e5 c8bd 3fa3 063e 3f56 433e
00000310: 44ae a4bd 29c1 613e 0096 0f3e 4f9c 183e
00000320: 0be2 a4bd 309e 353e e177 0d3e 379c f13c
00000330: 8c21 1f3c f007 a6bd 1113 4a3e c785 013e
00000340: 700c f73d 7719 713e c4bc e43d 7516 343e
00000350: 1daf ed3d c0ac 8b3e 5d84 0e3e d5e4 bdbd
00000360: 420c 5f3e 4b79 213e 519b 473e 2b9c dc3d
00000370: 9a8c 00be 3b68 e1bd 927b 803e 2893 3b3e
00000380: c821 183e fe29 a53c 03da 503e c358 ea3d
00000390: 8768 7e3d 9350 243e 59b2 8cbe 1061 633e
000003a0: 690c 153e 0ad6 dcbd 8f97 1b3d c351 1f3e
000003b0: d4fd 2abe e2fa 093e 1d2c 74bd 7217 ff3d
000003c0: 85e9 cb3d f47a a4bd d68b a3bd 4d0b bf3d
000003d0: 074b bdbd e393 d23d 58fc 503e 6b9c 3e3e
000003e0: ad15 233e 7b5e bc3d 489f 0f3e bf0f 6f3d
000003f0: e3f0 f53d fd7e 383e 627e ecbd 1a32 0f3e
-0.10481811 -0.103429995 -0.18042353 -0.070965216 0.19396703 0.18234709 0.14646335 0.13661103
0.121794306 0.15471949 0.10422658 0.062672146 0.056847773 0.10799083 0.1939951 0.12597822
0.14425053 0.13477483 -0.035498366 0.14139017 -0.16106983 0.16554011 -0.06644973 0.08719909
0.17356074 0.14008789 0.12586793 0.1511103 0.16742404 -0.13907377 0.11252323 -0.12718253
0.07529431 0.17028242 0.28415236 0.105816886 0.092681035 -0.18687452 -0.11139183 0.11340547
0.061508216 0.15836948 0.16160533 -0.07125902 -0.11802684 0.13175578 -0.098558486 0.178497
0.061853666 -0.10176576 -0.02156517 0.13465548 0.14882903 0.09202528 -0.22025609 0.16114874
0.25487873 -0.09991379 0.15546507 -0.22229551 -0.09459903 0.15575445 0.10080198 -0.11453874
0.15986852 0.23133825 0.11278811 0.043039683 0.141768 0.08741259 0.18261363 0.07379598
0.12524089 0.16259669 -0.115684405 -0.033762544 0.07463364 0.26888072 0.13544424 0.20675866
-0.094962105 0.037367553 0.090916924 0.19789833 0.15285443 0.13290408 0.18746991 -0.09112998
0.0753718 -0.1096287 0.1442022 0.118671894 0.36551926 0.1688714 0.20020667 0.064839914
0.121081 0.18113963 0.1008153 -0.16423605 -0.09576795 0.03891294 -0.1288366 0.08862835
-0.085042104 -0.10636315 -0.13346063 -0.11424184 0.099695146 0.118298166 0.1573254 -0.07451925
0.1540689 0.13385993 0.08636233 0.12863033 0.14531626 0.12128581 0.16560584 0.18796565
-0.10203861 0.11072171 -0.043398876 -0.049638234 -0.1715092 0.20230834 0.17346825 0.14606428
0.09294331 0.23877002 0.15863582 0.21577926 -0.11960542 0.07763154 0.1573254 -0.043137565
0.10914306 0.04785144 0.021296512 -0.048149012 -0.08208142 -0.1925066 0.11814606 -0.121736035
0.11142011 -0.10467201 0.1355507 -0.097596064 0.14125994 0.118801646 0.0036862933 -0.09306807
0.14556791 0.17587948 -0.07853692 0.03011942 0.16602528 0.046249185 0.20186579 -0.07166474
-0.16859345 0.13485232 -0.076279834 0.07917236 0.11152495 0.16075851 0.14548849 0.21961398
0.20739792 0.1297485 0.27451122 0.1513554 0.17668155 0.20022373 0.16044062 -0.24830991
0.13538574 -0.12905806 0.06521639 0.18117632 0.14938176 0.18353826 0.10629748 0.11020031
-0.04266252 -0.15260008 0.082741365 -0.03741072 0.15342768 0.054998804 0.22802821 -0.26249075
0.1603157 -0.09809387 0.13148211 0.19075869 -0.08041051 0.22046341 0.14022064 0.14903377
-0.08050927 0.17736125 0.13815261 0.029493434 0.009712588 -0.08106983 0.19733836 0.12648688
0.12062919 0.2354487 0.11168817 0.17586692 0.11605666 0.27280235 0.1391768 -0.09272162
0.2178202 0.15768926 0.19492842 0.10771974 -0.12553635 -0.110062085 0.25094277 0.18317854
0.14856637 0.020161625 0.20395665 0.11442711 0.062111404 0.16046362 -0.27479818 0.22204995
0.14555515 -0.10783012 0.037986334 0.15558533 -0.1669839 0.1347461 -0.059612382 0.12455644
0.0995665 -0.08031264 -0.07985656 0.09328327 -0.09242826 0.102821134 0.20408762 0.18614356
0.15926237 0.09197708 0.14025605 0.058364626 0.12008836 0.18017192 -0.11547543 0.13983956

fc2.bias f4 [11]
00000000: 9465 f73d 1e3c d73e 9d38 823e 2326 e63e
00000010: ac9e 843e 7c9e e83e ad85 893e 59ae e73e
00000020: 59b7 6a3e be24 d33e 25ad 873e
0.12079921 0.42038053 0.25433818 0.4495097 0.25902307 0.45433414 0.268598 0.45250204
0.22921504 0.4123897 0.26499286
