LunarLander_DQN/outputs/module_1400.pt (torch, 21847 bytes, 6 tensors)

fc1.weight f4 [64, 8]
-0.21306527 1.3658221 -0.37205568 0.06271725 -0.114010245 0.4947426 -2.0580816 0.37912825
1.9882919 1.9808437 4.0228834 3.3768427 1.936137 0.6164285 -1.1661896 -0.95453507
0.37377706 0.022969563 0.34953603 -0.79678196 0.8349347 2.2146606 -0.21573786 -0.8548471
0.91574085 5.7405963 2.0108693 0.53969944 -1.8511424 1.1956147 -0.48400488 -0.31936923
-0.1649676 -0.024320208 0.61337423 -0.88481736 -0.14036386 3.7685301 -0.21405233 0.10920584
0.15129219 -0.45832783 -0.02884458 -2.797548 1.8150982 -0.6446566 -0.45343927 0.0039257794
-0.67718434 -1.0560359 -0.36875674 -1.2434983 1.8080997 0.7553159 0.9232327 -0.7238349
-1.0039101 1.4651412 0.25363368 0.53539824 -0.0057289363 0.2711001 -0.38273865 -0.9965572
-0.8516497 -1.8845421 1.5353391 -1.7330607 0.33965623 -1.1539412 -0.4082383 -0.025353488
-0.16251172 1.4463748 -0.2298294 -0.11730839 0.21714357 0.10460398 -1.966627 0.08812556
0.851349 -0.30070746 -0.7672603 2.1514807 -1.5236105 0.7101814 0.012175496 -0.4052844
0.034006722 0.18587263 -1.1494409 -2.6370397 -2.076546 0.45559412 0.62869453 -0.46977088
-0.09399492 -1.6726769 0.929745 -1.7905064 0.2225599 -1.521118 -1.0228248 -0.44636065
-0.4886974 1.0084944 0.20478658 0.5199348 0.7957088 -0.84837157 -1.3959845 -0.70576054
0.89209926 -0.91146725 -2.432883 -0.11644213 0.20413913 -0.40953168 0.88453746 0.20404492
-0.3921889 -1.2212635 -0.15757833 -0.42238218 1.6969006 0.82990885 0.99994826 -0.6782392
0.14734142 -1.0693423 -0.042758547 -2.3853822 1.3500237 -0.18798478 -0.85437405 0.27000928
-0.45213443 0.8406126 -0.28554353 0.07735074 0.7760794 1.6914042 -0.8848224 -0.4034393
0.628271 1.2849237 -1.719734 3.4622204 6.610671 3.7685964 -0.68108207 -1.8502783
1.5640432 1.7031016 2.0162873 6.7942133 0.8830271 0.59018576 -0.6443599 -0.5813703
0.42191693 0.28639373 -0.14003618 -1.4368303 -3.2287276 -0.74198955 -0.2740731 -0.30365205
-0.030708838 -3.1481636 1.0430872 5.4687567 -0.8646871 0.609391 2.1714296 0.6469418
-0.8827231 0.5253336 -0.88990116 1.0303342 -0.56462747 -0.29982227 0.12763895 -0.2485444
0.26473832 1.053896 2.9611712 4.428089 -3.5563014 -0.6503329 -0.8668707 -0.49151108
0.032362964 -3.0967374 2.3773522 -1.2534895 0.032068975 -0.58168966 -0.8949419 -0.21660449
-0.68613595 0.775936 -0.04078117 -0.34149316 0.45268464 2.2196128 -0.54659814 -0.6495235
0.55335647 -0.2770916 -1.7011803 1.5078186 1.3067769 -1.0919714 -0.0787166 -0.61177015
-0.4531897 1.193761 -0.15052906 -0.027142556 -0.21882184 1.4067531 -1.4003172 -0.41436106
-1.7317084 2.2422628 2.1375723 -3.1878142 0.012263585 1.9103563 -1.027488 -0.09157536
-3.0955641 1.6182623 -4.126387 4.720682 1.2858467 0.9825398 -0.5078354 -0.8453039
-1.6050518 0.2949366 -1.2592164 0.7144066 -3.400944 1.629684 0.59714335 -0.60292506
0.19089523 -1.4096515 1.3849293 -1.6116358 0.66230357 -1.6034065 -0.51350343 -0.7196888
00000000: c82d 5abe 42d3 ae3f 157e bebe e771 803d
00000010: 347e e9bd e74e fd3e 9cb7 03c0 191d c23e
00000020: 5980 fe3f 498c fd3f 76bb 8040 311e 5840
00000030: 56d3 f73f 42ce 1d3f b345 95bf 695c 74bf
00000040: b55f bf3e aa2a bc3c 63f6 b23e e7f9 4bbf
00000050: 48be 553f 00bd 0d40 63ea 5cbe 42d7 5abf
00000060: fe6d 6a3f f7b2 b740 15b2 0040 be29 0a3f
00000070: 3cf2 ecbf e709 993f 7dcf f7be 5d84 a3be
00000080: 44ed 28be 2c3b c7bc 1806 1d3f 6483 62bf
00000090: 8bbb 0fbe 992f 7140 8930 5bbe 50a7 df3d
000000a0: 57ec 1a3e f2a9 eabe 784b ecbc 070b 33c0
000000b0: 2355 e83f 3708 25bf 3129 e8be d3a3 803b
000000c0: f45b 2dbf 2f2c 87bf afcd bcbe f42a 9fbf
000000d0: d06f e73f 625c 413f fa58 6c3f 3e4d 39bf
000000e0: 2080 80bf bf89 bb3f 46dc 813e dc0f 093f
000000f0: cdb9 bbbb a2cd 8a3e 52f6 c3be 5f1e 7fbf
00000100: b705 5abf ad38 f1bf fe85 c43f efd4 ddbf
00000110: 6ce7 ad3e 58b4 93bf 9c04 d1be 1eb2 cfbc
00000120: 7969 26be cf22 b93f 6658 6bbe 623f f0bd
00000130: e25a 5e3e 9d3a d63d 6fba fbbf 2c7b b43d
00000140: 02f2 593f 54f6 99be 2c6b 44bf dcb1 0940
00000150: ab05 c3bf 73ce 353f bb7b 473c 7081 cfbe
00000160: a24a 0b3d 6555 3e3e e120 93bf 42c5 28c0
00000170: 21e6 04c0 a243 e93e 20f2 203f cf85 f0be
00000180: 6980 c0bd 471a d6bf c503 6e3f 502f e5bf
00000190: bee6 633e ffb3 c2bf eceb 82bf 6289 e4be
000001a0: 8c36 fabe 5816 813f 93b3 513e 721a 053f
000001b0: 92b3 4b3f e12e 59bf 9faf b2bf b9ac 34bf
000001c0: 9e60 643f eb55 69bf 5bb4 1bc0 3679 eebd
000001d0: d909 513e 23ae d1be 0c71 623f 27f1 503e
000001e0: fccc c8be 5d52 9cbf 375c 21be 7a42 d8be
000001f0: 0a34 d93f e874 543f 9cfc 7f3f 16a1 2dbf
00000200: abe0 163e 35e0 88bf 9623 2fbd 1aaa 18c0
00000210: 94cd ac3f 157f 40be 42b8 5abf a83e 8a3e
00000220: 2a7e e7be 6332 573f c332 92be 116a 9e3d
00000230: 24ad 463f ef7f d83f b983 62bf 998f cebe
00000240: 5ed6 203f 6178 a43f 3e20 dcbf 0595 5d40
00000250: 9e8a d340 af30 7140 655b 2ebf ebd5 ecbf
00000260: 9132 c83f 3cff d93f da0a 0140 326a d940
00000270: 100e 623f 6a16 173f c5f4 24bf afd4 14bf
00000280: 7f05 d83e 33a2 923e a565 0fbe 0eea b7bf
00000290: 79a3 4ec0 07f3 3dbf 4f53 8cbe 4878 9bbe
000002a0: 1a91 fbbc 837b 49c0 e283 853f 0e00 af40
000002b0: 225c 5dbf 0c01 1c3f b4f8 0a40 fa9d 253f
000002c0: 24fa 61bf 437c 063f 90d0 63bf fee1 833f
000002d0: 6d8b 10bf 4e82 99be c9b3 023e 6c82 7ebe
000002e0: c88b 873e 10e6 863f d483 3d40 e8b2 8d40
000002f0: 719a 63c0 387c 26bf 3deb 5dbf 57a7 fbbe
00000300: 078f 043d f230 46c0 8a26 1840 5872 a0bf
00000310: c25a 033d 9de9 14bf ea1a 65bf 91cd 5dbe
00000320: 9ba6 2fbf bea3 463f 280a 27bd 31d8 aebe
00000330: 48c6 e73e 230e 0e40 dbed 0bbf 2c47 26bf
00000340: c5a8 0d3f f3de 8dbe 47c0 d9bf 3300 c13f
00000350: 7744 a73f b8c5 8bbf 2b36 a1bd f89c 1cbf
00000360: 7b08 e8be 29cd 983f 4a24 1abe 115a debc
00000370: d512 60be 7c10 b43f 983d b3bf 2227 d4be
00000380: 9fa8 ddbf 3c81 0f40 fccd 0840 2605 4cc0
00000390: 34ed 483c 8e86 f43f ba84 83bf dd8b bbbd
000003a0: b91d 46c0 3823 cf3f 5d0b 84c0 d40f 9740
000003b0: a096 a43f ba87 7b3f 8001 02bf d665 58bf
000003c0: 5672 cdbf ee01 973e 012e a1bf 5ae3 363f
000003d0: 11a9 59c0 7c99 d03f 63de 183f 4c59 1abf
000003e0: 0a7a 433e 766f b4bf 5d45 b13f 154a cebf
000003f0: ba8c 293f 6d3c cdbf f674 03bf 863d 38bf

fc1.bias f4 [64]
-0.22747664 0.12361378 -1.9111714 0.362503 -0.89403105 0.15606047 -1.9722815 0.13270785
-0.5358604 -0.49984962 0.57299614 0.17115188 -0.64170295 -0.5953347 0.4053833 -1.7265047
-0.017567681 0.11730745 0.7611639 -0.18721887 -0.18806635 0.43715107 0.855127 -0.29405677
0.08949241 -0.11424543 -0.51586473 -0.12552609 0.60991037 -0.45037103 0.91282105 0.102454506
0.29449013 0.5304291 -0.9708933 -0.3799572 -1.6414535 0.22223838 0.05401409 0.13950883
0.37863082 0.6915326 0.3184746 0.1780194 -0.0729956 -0.9318065 -1.0456319 1.1846024
-0.80037713 0.35981938 0.9685477 0.602389 -1.7851351 -1.861584 0.46007213 0.65401506
-2.0712523 0.27301773 0.5760081 -1.7983261 0.58851403 -0.19771728 -0.94801474 0.104363725
00000000: a3ef 68be 3929 fd3d 44a1 f4bf fe99 b93e
00000010: 38df 64bf 51ce 1f3e b873 fcbf 91e4 073e
00000020: 262e 09bf 4aec ffbe e0af 123f 7042 2f3e
00000030: a546 24bf db67 18bf 668e cf3e 1bfe dcbf
00000040: 19ea 8fbc e33e f03d a3db 423f 4eb6 3fbe
00000050: 7794 40be 44d2 df3e 9ae9 5a3f 9c8e 96be
00000060: cc47 b73d 82f9 e9bd b60f 04bf e989 00be
00000070: 1623 1c3f 0897 e6be a4ae 693f abd3 d13d
00000080: 69c7 963e 34ca 073f 778c 78bf c089 c2be
00000090: 261b d2bf 7592 633e e13d 5d3d 67db 0e3e
000000a0: e6db c13e 4808 313f 1a0f a33e b84a 363e
000000b0: b87e 95bd df8a 6ebf 44d7 85bf 0da1 973f
000000c0: 84e5 4cbf 3f3a b83e bef2 773f 2a36 1a3f
000000d0: 4f7f e4bf 6248 eebf 938e eb3e 886d 273f
000000e0: 668f 04c0 fbc8 8b3e 4475 133f 8d2f e6bf
000000f0: dba8 163f 6676 4abe 18b1 72bf a6bc d53d

fc2.weight f4 [64, 64]
-0.07495286 0.038404748 0.038443424 -0.09529508 0.0028636516 -0.024310011 -0.023004191 0.060721155
-0.11794112 -0.06709005 -0.12999885 -0.022512807 0.008342985 0.055483826 -0.06617816 -0.011331717
0.088722564 0.051207896 -0.1295708 -0.07292971 0.02274211 -0.094072595 -0.059617694 0.05637598
-0.01247734 -0.09465101 0.020484634 0.08250277 0.0060102358 -0.04980816 0.02550625 0.05006487
-0.11891416 -0.058490027 -0.09012171 -0.10995686 0.064603455 0.049538486 -0.07669766 0.11478997
-0.06306019 0.024055412 0.094143994 -0.020923462 -0.11503456 0.0027596706 -0.03654224 -0.12589593
-0.053231467 0.038845267 0.10195711 0.086628325 -0.09221933 -0.052046586 -0.045725297 -0.042871334
-0.096149504 -0.13050097 0.08900608 -0.025837755 0.066719815 0.014112552 0.058973342 0.07073888
-1.1269149 1.5957276 -0.8018372 0.9861689 -0.74112105 0.23906665 -0.92288893 -0.3962107
0.39617497 -1.1262945 0.38670167 0.37160265 0.44689935 -0.5581647 0.059553895 -1.1432236
0.339751 -0.93489456 1.3989453 1.4517236 0.39786553 -2.179866 0.28257954 1.3012148
0.5947996 -0.67114383 0.39563107 -1.1438081 0.3498254 1.9837171 0.3959303 0.3507529
0.21913087 0.20387015 -1.4900205 0.75660115 -1.7179142 0.4224944 0.43008995 0.29523203
0.60157377 0.4690638 0.9126691 -0.86692244 -1.4214857 -1.1872185 -0.96955174 0.9637086
-1.3420751 0.6304277 0.69549614 0.44291392 -1.4321795 -1.1534588 -0.97350764 0.63910586
-0.7156572 1.1192104 -1.2148514 -0.8599023 0.96033764 0.49648866 -0.9766028 0.8740704
-1.239419 1.2407477 -1.4340478 0.37360105 -1.9070541 0.88605636 -1.7404611 -1.0543928
0.6892467 -1.2075299 -0.31906635 0.4825329 1.2454741 -0.717134 0.3068466 -2.1947353
0.93055147 -1.469346 -0.55104506 0.24942434 0.83957326 -5.354912 0.011083096 0.22981834
0.8470185 -1.3650124 0.47703385 -1.1491326 0.24458025 0.1202049 -0.89937437 0.7264739
0.7284304 0.7398455 -2.4221528 -1.2413602 -2.005333 -0.12678061 0.8666357 0.48858446
0.53643036 0.19388974 -0.40630427 -1.241913 -4.537551 -1.8254505 -1.9874998 -0.2621752
-1.6965592 -1.1581376 0.21260738 0.3910292 -1.3450701 -1.6922405 -2.1105645 -0.19313966
-1.9069979 -0.12135757 -1.6275141 -2.6795359 -0.7994256 0.889087 -2.4253273 0.68477917
1.926915 0.18225446 -0.7250788 0.92813194 -0.42271322 -0.22392932 -0.35810113 2.0995982
0.31636027 1.710688 1.2926396 0.8535401 0.2614023 1.686244 0.34709898 -0.10452036
0.31537652 1.3460342 0.643513 -0.13398136 0.6398322 0.84263355 1.082121 0.42673516
0.49778563 1.1050175 -0.687554 1.5450482 1.0372344 -0.66600865 1.4461153 0.9252159
-0.12706517 1.163049 0.5556113 -0.55117327 -0.16320713 1.0978998 0.88325584 0.55533236
0.95621055 1.3142209 0.90446395 1.0353692 1.3818048 0.97086424 0.98686075 0.51383394
2.0046406 1.4676846 1.2354064 0.882005 -0.29552954 0.5178562 2.2510784 1.1033247
-1.1403047 0.901036 1.3611704 0.07061217 1.3332266 0.6891059 -0.32689068 0.70101917
00000000: e380 99bd 4c4e 1d3d da76 1d3d 112a c3bd
00000010: 1aac 3b3b ca25 c7bc 4973 bcbc bfb6 783d
00000020: 1d8b f1bd 8266 89bd 6b1e 05be c76c b8bc
00000030: 04b1 083c 0243 633d 6a88 87bd aaa8 39bc
00000040: 2db4 b53d 5fbf 513d 35ae 04be 2c5c 95bd
00000050: a94d ba3c 22a9 c0bd af31 74bd 80ea 663d
00000060: c26d 4cbc 64d8 c1bd 64cf a73c 36f7 a83d
00000070: 83f1 c43b a403 4cbd 7cf2 d03c d210 4d3d
00000080: 4489 f3bd 3d93 6fbd bb91 b8bd 1031 e1bd
00000090: d14e 843d dee8 4a3d aa13 9dbd 0117 eb3d
000000a0: b325 81bd db0f c53c 91ce c03d ae67 abbc
000000b0: 3d97 ebbd 97db 343b 51ad 15bd ddea 00be
000000c0: 3d09 5abd 371c 1f3d e4ce d03d 316a b13d
000000d0: 7ddd bcbd cd2e 55bd 734a 3bbd da99 2fbd
000000e0: 08ea c4bd 0ca2 05be d248 b63d b3a9 d3bc
000000f0: 66a4 883d 5538 673c 088e 713d 8cdf 903d
00000100: bf3e 90bf cd40 cc3f 3445 4dbf 9175 7c3f
00000110: 1cba 3dbf e3cd 743e 7342 6cbf 21dc cabe
00000120: 72d7 ca3e 6b2a 90bf c3fd c53e b442 be3e
00000130: fecf e43e e2e3 0ebf c9ee 733d 2755 92bf
00000140: d8f3 ad3e 4055 6fbf a410 b33f 14d2 b93f
00000150: 08b5 cb3e ed82 0bc0 44ae 903e 358e a63f
00000160: c944 183f 15d0 2bbf 2890 ca3e 4e68 92bf
00000170: 511c b33e 71ea fd3f 60b7 ca3e e295 b33e
00000180: d863 603e 56c3 503e feb8 bebf 9db0 413f
00000190: 9de4 dbbf 3051 d83e c034 dc3e a728 973e
000001a0: bd00 1a3f 2129 f03e afa4 693f a1ee 5dbf
000001b0: 3ef3 b5bf c7f6 97bf 8b34 78bf 9bb5 763f
000001c0: 1ec9 abbf b663 213f 090c 323f 9dc5 e23e
000001d0: a851 b7bf 8aa4 93bf cc37 79bf 719c 233f
000001e0: 4f35 37bf 4942 8f3f 4080 9bbf 8f22 5cbf
000001f0: b0d8 753f c333 fe3e a402 7abf 14c3 5f3f
00000200: 48a5 9ebf d2d0 9e3f e18e b7bf a348 bf3e
00000210: 591a f4bf 97d4 623f 6ec7 debf 58f6 86bf
00000220: 7972 303f 5790 9abf aa5c a3be 8d0e f73e
00000230: b26b 9f3f 1896 37bf ff1a 9d3e 8b76 0cc0
00000240: 9f38 6e3f 8813 bcbf 4a11 0dbf 1869 7f3e
00000250: 46ee 563f 705b abc0 e095 353c 8055 6b3e
00000260: 34d6 583f bab8 aebf c83d f43e c716 93bf
00000270: 3f73 7a3e fd2d f63d 663d 66bf 32fa 393f
00000280: 6a7a 3a3f 8466 3d3f 8d04 1bc0 e4e4 9ebf
00000290: 6057 00c0 c7d2 01be d6db 5d3f be27 fa3e
000002a0: 8053 093f 088b 463e 1d07 d0be 01f7 9ebf
000002b0: 9e33 91c0 5da8 e9bf 6566 febf d43b 86be
000002c0: da28 d9bf da3d 94bf c0b5 593e fb34 c83e
000002d0: 422b acbf 569b d8bf 7d13 07c0 67c6 45be
000002e0: 8218 f4bf 518a f8bd 6252 d0bf 847d 2bc0
000002f0: 28a7 4cbf 359b 633f 9038 1bc0 b04d 2f3f
00000300: 27a5 f63f eaa0 3a3e c49e 39bf 0e9a 6d3f
00000310: de6d d8be ba4d 65be 0859 b7be d15f 0640
00000320: f9f9 a13e d3f7 da3f 3775 a53f 9b81 5a3f
00000330: 86d6 853e d8d6 d73f f5b6 b13e c50e d6bd
00000340: 0879 a13e d94a ac3f 45bd 243f 6932 09be
00000350: 0bcc 233f d5b6 573f f182 8a3f 087d da3e
00000360: c2dd fe3e 3771 8d3f 8a03 30bf 24c4 c53f
00000370: 19c4 843f 8b7f 2abf 4e1a b93f f3da 6c3f
00000380: 5f1d 02be cade 943f 8b3c 0e3f b119 0dbf
00000390: c51f 27be fb87 8c3f 0e1d 623f 432a 0e3f
000003a0: 37ca 743f 6438 a83f f38a 673f fa86 843f
000003b0: fbde b03f 8f8a 783f e8a2 7c3f 9f8a 033f
000003c0: 084c 0040 17dd bb3f cc21 9e3f 14cb 613f
000003d0: a64f 97be 3992 043f ab11 1040 be39 8d3f
000003e0: 81f5 91bf 4caa 663f d53a ae3f 1d9d 903d
000003f0: 2ba7 aa3f 3f69 303f 375e a7be fe75 333f

fc2.bias f4 [64]
-0.039750624 0.33342445 0.100115396 1.0240945 -0.032181337 0.5412018 0.26597443 0.0016374141
0.03286564 0.055880114 -0.109378144 -0.08450627 0.033329945 0.038162734 0.36833364 0.05290371
0.037512407 0.04738249 -0.01420826 -0.04365949 0.022566523 -0.07886007 0.08190776 0.09089953
-0.19183086 0.052782867 0.41350344 0.09144386 -0.020721076 0.46491966 -0.052135322 0.12158844
0.500534 0.107370816 -0.1481487 -0.0329688 0.038519695 0.44780442 0.2801589 -0.09092155
0.09639893 -0.07033434 -0.015848858 -0.057602257 0.05127539 -0.067876674 -0.08052819 -0.04826605
-0.011843785 0.21457057 -0.11416596 -0.056687277 0.05959715 -0.02858845 -0.03588656 -0.027534135
-0.15525533 -0.13611735 0.21173081 -0.043893278 -0.14645785 0.01978147 0.3103595 -0.12035386
00000000: 8dd1 22bd 9cb6 aa3e 4d09 cd3d 8715 833f
00000010: 94d0 03bd 338c 0a3f cd2d 883e 809e d63a
00000020: 1f9e 063d 8ce2 643d a601 e0bd a011 adbd
00000030: fb84 083d 8750 1c3d 3a96 bc3e 90b1 583d
00000040: 9ca6 193d 2414 423d c3c9 68bc 4bd4 32bd
00000050: 6edd b83c 6381 a1bd 41bf a73d 8829 ba3d
00000060: 4f6f 44be d932 583d b9b6 d33e eb46 bb3d
00000070: 3fbf a9bc f309 ee3e d98b 55bd 5c03 f93d
00000080: ff22 003f 3be5 db3d 4bb4 17be 4b0a 07bd
00000090: d4c6 1d3d 9f46 e53e fd70 8f3e 1435 babd
000000a0: cd6c c53d 730b 90bd 77d5 81bc 58f0 6bbd
000000b0: 2506 523d ed02 8bbd f7eb a4bd 9fb2 45bd
000000c0: 6f0c 42bc 63b8 5b3e d8cf e9bd eb30 68bd
000000d0: 241c 743d 5332 eabc c9fd 12bd 448f e1bc
000000e0: 41fb 1ebe 5962 0bbe f6cf 583e 70c9 33bd
000000f0: 0cf9 15be c00c a23c 71e7 9e3e 167c f6bd

fc3.weight f4 [4, 64]
0.122409075 -2.0289857 -1.5151083 1.7837405 -0.40896702 1.3791263 -2.201747 -0.09506349
-0.53047323 -0.90683657 0.12414561 -0.971902 0.11107238 -0.38944873 1.6199968 -0.10920271
-1.0746155 0.38681215 0.09910582 -0.04992961 -0.9665036 -0.74562985 -1.7630299 0.28143528
-0.75167483 -2.490974 -1.8455309 -1.2224857 0.057108577 2.7820442 2.3802853 2.912354
2.1079886 2.3596754 -0.7275041 -1.1124309 -2.3167243 0.72449386 -1.7886293 -0.6453345
0.43194273 -0.400108 -0.078122124 -0.48054224 -1.2765406 -1.224986 -0.115008324 -0.94551486
-0.49237105 -1.8300279 -1.2787973 -0.68579245 -0.5509118 -0.95656693 -0.570552 -1.1369507
0.019982748 -1.0290765 0.45939258 -0.024754252 -1.2741594 0.37026528 -1.5650282 0.063965574
0.027835459 -2.01694 -2.227513 2.0677423 -0.88215446 1.0831064 -1.7948058 0.111025766
-0.71726775 -1.4284827 0.04317132 -1.077724 -0.0072254813 -0.58786535 1.8248544 -0.009156719
-1.7677814 0.4607146 -0.06587178 0.11270467 -1.0512666 -0.33024156 -1.146295 1.0709476
-0.7886639 -1.375263 -1.8533174 -1.0911988 0.11244965 3.2459044 2.16504 2.2533886
1.8880124 2.3807654 -0.6426584 -1.4347855 -1.3243995 0.4540071 -2.4445133 -0.86022115
0.4286125 -0.66807234 0.047962096 -0.9181306 -0.65790236 -1.0249773 0.12088814 -0.89393985
-0.7845645 -2.3939366 -0.7120752 -0.577994 -0.60558635 -0.93321776 -1.0180092 -1.2526451
0.09991896 -0.9621589 1.3845476 0.016235262 -1.3147146 0.54837924 -1.5912132 0.040770233
0.11643546 -1.8665057 -2.497792 1.2555646 -0.88388383 2.0438564 -2.668048 -0.11387937
-0.72681206 -0.5680124 0.038226053 -0.7957687 0.08065532 -0.9808665 2.4162655 -0.006442502
-2.0348692 -0.2840925 0.06236835 0.070414126 -0.6122449 -0.93835235 -0.9640395 -0.878685
-0.8239122 -1.1655923 -1.7249737 -0.5594691 0.10529023 1.8940492 2.830252 1.768634
1.9389774 2.3764863 -0.7862804 -0.76422596 -1.6863836 2.123604 -2.5550325 -0.84541583
-0.36025023 -0.71047527 0.018281924 -0.7566305 -0.694906 -0.5208013 -0.038169935 -0.7617395
-0.77247787 -2.5846508 -1.0189041 -0.7674291 -0.9159676 -0.8507428 -0.8314703 -0.78168917
0.07990346 -0.91626126 -3.4267783 0.094123796 -0.8835359 -0.19899206 -1.3143947 0.040344864
0.082258165 -2.1520295 -1.816531 1.8805816 -0.74521303 1.3542674 -1.9988068 -0.057342142
-0.4672721 -0.99917626 -0.022567287 -1.0261823 0.0037452173 -0.5061386 2.5433376 -0.109520644
0.014638277 0.23010653 0.06334017 0.049119353 -0.92233884 -1.0411457 -0.8391459 -0.679115
-0.6042538 -2.3352995 -1.5729364 -1.1846727 -0.08299162 2.7041926 2.2431605 1.2911121
1.8583755 1.9006971 -0.84030867 -0.62296677 -3.1849704 0.86077195 -2.5801418 -0.5431005
0.31087083 -0.5320665 0.060091827 -0.88172674 -1.0240479 -1.1217046 0.0893078 -0.78106946
-0.72813624 -1.7176378 -1.1949717 -0.5506729 -0.5225519 -0.61225826 -0.8422139 -0.79221654
0.106050536 -0.80094 0.8006962 -0.056667313 -0.7059292 0.2332368 -0.9112141 0.061049595
00000000: 9cb1 fa3d e7da 01c0 12ef c1bf 9c51 e43f
00000010: 2064 d1be 3687 b03f 6ce9 0cc0 a6b0 c2bd
00000020: 18cd 07bf 7126 68bf 0e40 fe3d 92ce 78bf
00000030: ea79 e33d d365 c7be 0e5c cf3f aca5 dfbd
00000040: 008d 89bf 3e0c c63e fef7 ca3d fe82 4cbd
00000050: c86c 77bf 99e1 3ebf f7aa e1bf 4918 903e
00000060: c36d 40bf 1e6c 1fc0 5b3a ecbf 697a 9cbf
00000070: afea 693d 030d 3240 9856 1840 0264 3a40
00000080: 49e9 0640 ec04 1740 b53d 3abf 2364 8ebf
00000090: 3645 14c0 6e78 393f cef1 e4bf a434 25bf
000000a0: 9927 dd3e f5da ccbe 7efe 9fbd a209 f6be
000000b0: af65 a3bf 57cc 9cbf 7c89 ebbd 430d 72bf
000000c0: 0f18 fcbe 5b3e eabf a1af a3bf 1890 2fbf
000000d0: 8e08 0dbf 92e1 74bf b20f 12bf 9a87 91bf
000000e0: dcb2 a33c c7b8 83bf 8135 eb3e 6ec9 cabc
000000f0: a817 a3bf 6993 bd3e d852 c8bf 6200 833d
00000100: 3007 e43c 8c15 01c0 938f 0ec0 e455 0440
00000110: e0d4 61bf 3ba3 8a3f 32bc e5bf 7a61 e33d
00000120: dc9e 37bf 85d8 b6bf 69d4 303d dcf2 89bf
00000130: bbc3 ecbb 587e 16bf d494 e93f 1006 16bc
00000140: a946 e2bf c9e2 eb3e c9e7 86bd b5d1 e63d
00000150: e78f 86bf 6c15 a9be cbb9 92bf d014 893f
00000160: e1e5 49bf 9e08 b0bf 8139 edbf 67ac 8bbf
00000170: 014c e63d e6bc 4f40 0490 0a40 8537 1040
00000180: 64aa f13f 765e 1840 4385 24bf 0da7 b7bf
00000190: ec85 a9bf 9e73 e83e e872 1cc0 7437 5cbf
000001a0: 1973 db3e ca06 2bbf e773 443d 9b0a 6bbf
000001b0: 4a6c 28bf 7532 83bf 3394 f73d 3ed9 64bf
000001c0: 38d9 48bf 4236 19c0 8f4a 36bf 6af7 13bf
000001d0: b507 1bbf 5ce7 6ebf 204e 82bf ad56 a0bf
000001e0: 50a2 cc3d 0c50 76bf db38 b13f d0ff 843c
000001f0: 9148 a8bf 9562 0c3f e0ac cbbf b0fe 263d
00000200: b775 ee3d a9e9 eebf d3db 1fc0 57b6 a03f
00000210: 3646 62bf 8bce 0240 4cc1 2ac0 9639 e9bd
00000220: 5b10 3abf 4369 11bf ec92 1c3d 7fb7 4bbf
00000230: 9e2e a53d 111a 7bbf 18a4 1a40 a01b d3bb
00000240: 4c3b 02c0 9274 91be f475 7f3d 4835 903d
00000250: 15bc 1cbf dc37 70bf 4bcb 76bf 80f1 60bf
00000260: e9eb 52bf 2132 95bf f0cb dcbf 5e39 0fbf
00000270: 67a2 d73d 3470 f23f d922 3540 9962 e23f
00000280: 6930 f83f 5a18 1840 ac49 49bf 50a4 43bf
00000290: 6bdb d7bf 21e9 0740 a785 23c0 2c6d 58bf
000002a0: b872 b8be b5e1 35bf f9c3 953c 89b2 41bf
000002b0: 5ce5 31bf 3c53 05bf 1458 1cbd 5c01 43bf
000002c0: 1cc1 45bf eb6a 25c0 736b 82bf 3c76 44bf
000002d0: da7c 6abf 48ca 59bf 3ddb 54bf c81c 48bf
000002e0: 6da4 a33d 1990 6abf 5650 5bc0 fac3 c03d
000002f0: 692f 62bf 93c4 4bbe 163e a8bf a840 253d
00000300: f876 a83d daba 09c0 1684 e8bf e6b6 f03f
00000310: 48c6 3ebf a258 ad3f e7d8 ffbf 98df 6abd
00000320: 4a3e efbe 04ca 7fbf 08df b8bc f159 83bf
00000330: 5272 753b 4d92 01bf 0bc6 2240 5c4c e0bd
00000340: 62d5 6f3c 0ca1 6b3e 7eb8 813d 6031 493d
00000350: 661e 6cbf 4344 85bf 44d2 56bf 7bda 2dbf
00000360: 61b0 1abf 8c75 15c0 fb55 c9bf 5ba3 97bf
00000370: 83f7 a9bd 7e11 2d40 f18f 0f40 2943 a53f
00000380: 40df ed3f 0b4a f33f 781e 57bf c07a 1fbf
00000390: 8ed6 4bc0 8d5b 5c3f 0b21 25c0 a208 0bbf
000003a0: 762a 9f3e 8335 08bf d922 763d d8b8 61bf
000003b0: 0014 83bf 0494 8fbf 02e7 b63d 2bf4 47bf
000003c0: 2367 3abf 8edb dbbf d5f4 98bf e6f8 0cbf
000003d0: f6c5 05bf f5bc 1cbf 559b 57bf b4ce 4abf
000003e0: 0631 d93d 670a 4dbf 6dfa 4c3f fc1b 68bd
000003f0: c7b7 34bf a1d5 6e3e 5445 69bf 240f 7a3d

fc3.bias f4 [4]
0.48853788 0.034724142 0.21678181 0.17961968
00000000: a321 fa3e e73a 0e3d 0dfc 5d3e 39ee 373e
