LunarLander_DQN/outputs/module_1200.pt (torch, 21847 bytes, 6 tensors)

fc1.weight f4 [64, 8]
000000 53 d9 8f be 23 36 a8 3f cb ae 8e be 0e 66 16 3d
       -0.28095493 1.3141521 -0.2786773 0.03671842
000010 d6 f8 b9 bd 77 22 9f 3e 0b 2d 03 c0 b1 f2 e5 3c
       -0.09080665 0.31080982 -2.0496242 0.028069826
000020 28 50 ba 3f 52 2c c4 3f c5 db 69 40 0a 5b 72 40
       1.4555712 1.5326025 3.6540387 3.7868066
000030 cb 07 c4 3f 1b 5d a1 3e 74 b7 a4 bf ea 80 7b bf
       1.5314878 0.31516346 -1.2868485 -0.9824358
000040 af 9e 7e 3e 4e e4 6e be 36 25 0f 3f a0 4f 50 bf
       0.2486522 -0.23329279 0.55916154 -0.813715
000050 78 5b 29 3f 3e 62 23 40 88 8e 87 be 3c 4b 34 bf
       0.66155195 2.5528712 -0.2647593 -0.704273
000060 b7 b8 79 3e 0f e0 99 40 28 82 68 3f 47 4b 8c 3e
       0.2438687 4.808601 0.908236 0.27401182
000070 43 2f a1 bf 7c 7f 1a 3f 81 07 60 be 90 50 94 be
       -1.2592548 0.60350776 -0.21877863 -0.28967714
000080 a7 de 43 3e 13 0c 8d be 48 e9 c3 3e d6 75 68 bf
       0.19127904 -0.27548274 0.38263917 -0.90804803
000090 e4 ba f9 be 87 78 65 40 8c f2 95 be 48 02 25 3c
       -0.487754 3.5854814 -0.2928661 0.010071345
0000a0 c9 23 84 3f 0a 55 73 bd f6 6c a1 be 88 53 33 c0
       1.0323421 -0.05940727 -0.31528443 -2.8019733
0000b0 af 0c 86 3f e9 53 80 bf 61 6f 90 be b5 d7 7a bd
       1.0472621 -1.0025607 -0.28209975 -0.06124087
0000c0 93 bc 47 be 27 c0 ba bf c9 3a bf 3d d1 ce 99 bf
       -0.19505529 -1.458989 0.09337384 -1.201624
0000d0 e2 0f dc 3f da 5e a8 3f 41 3e 2e 3f 20 b3 37 bf
       1.7192347 1.3153946 0.6806374 -0.717577
0000e0 b6 fc 6f bf 0d a9 b3 3f 63 dc eb 3d 14 94 f8 3e
       -0.9374498 1.4035965 0.11516645 0.48550475
0000f0 f1 72 3c 3e 39 74 82 3e 4c 41 f7 be 2d 56 8c bf
       0.18403222 0.25479296 -0.48292005 -1.0963799
000100 81 80 37 3e 1e be a0 bf bb be 7a 3f 8c f9 b6 bf
       0.17920114 -1.2558019 0.9794728 -1.4294906
000110 27 51 a6 be 4e 4b a2 bf e5 a7 32 be 11 02 51 be
       -0.3248379 -1.2679231 -0.17446859 -0.20410945
000120 cc 3e ab bd b9 85 a8 3f 07 34 3f be 86 07 19 be
       -0.08361587 1.3165809 -0.1867219 -0.14944276
000130 dd d8 82 3e 83 c2 e0 bd b4 c3 f6 bf 92 03 8d be
       0.2555608 -0.109746 -1.9278474 -0.27541786
000140 cf fa c7 3e dc 53 be be 22 3d 40 bf fa 4b 0a 40
       0.3905854 -0.37173355 -0.7509328 2.1608872
000150 b8 aa a9 bf 06 a4 34 3f b3 1e e8 bd ab 03 f2 be
       -1.3255224 0.7056278 -0.113339804 -0.47268423
000160 66 e5 8c be 97 e6 8a be a9 33 50 bf 53 0c 0b c0
       -0.27518767 -0.2712905 -0.8132883 -2.1726272
000170 48 4b d9 bf d3 71 44 3f 16 5e a9 3e c8 2a ef be
       -1.6976099 0.7673618 0.33079594 -0.46712327
000180 df bd 1b 3f 6f d5 94 bf fc 47 14 3f a9 3d d4 bf
       0.60836595 -1.1627635 0.5792234 -1.6581317
000190 8a 02 a0 be 94 27 c6 bf ec 9b 53 bf e7 d5 26 bf
       -0.31251937 -1.5480828 -0.8265979 -0.6517014
0001a0 79 ec 64 be 02 26 80 3f b1 5e e6 3c 30 f4 64 3e
       -0.22355832 1.0011599 0.028121324 0.22358775
0001b0 5c d5 7b 3f 2d 82 8b bf d2 66 bc bf 19 65 5c bf
       0.98372436 -1.0899101 -1.4718878 -0.8609176
0001c0 05 33 78 3f 2f 57 4a bf f7 c2 06 c0 aa e6 96 be
       0.9695285 -0.7903928 -2.1056497 -0.29472858
0001d0 86 9f df 3d 49 ac 84 be 52 56 6e 3f 09 f4 55 3e
       0.109190986 -0.25912693 0.93100464 0.20893873
0001e0 d7 2b 34 3e 04 65 d0 bf d9 13 b7 3e bc 2a e5 be
       0.17594849 -1.6280828 0.3575733 -0.44759166
0001f0 43 39 bf 3f 91 9d a6 3f 76 5c 36 3f a0 a9 37 bf
       1.493935 1.3016835 0.71234834 -0.717432
000200 a4 a1 79 3f f4 1a 1b bf d7 63 b6 be de da 0a c0
       0.9751227 -0.60588 -0.35623047 -2.1696086
000210 ad 4a d6 3d 1b 02 0f bf 04 d1 09 bf 45 82 80 3e
       0.10463462 -0.5586259 -0.5383456 0.25099388
000220 4f 92 b2 be 95 f9 55 3f 9c b5 c8 bd 3a 87 5a 3e
       -0.3487725 0.83583957 -0.09800264 0.21340647
000230 11 f5 2e 3f 1e 7b ea 3f 0e 90 6b bf d0 22 15 bf
       0.6834269 1.8318822 -0.92016685 -0.58256245
000240 1e 4a 54 3f d7 6f a3 3f 0d d9 17 c0 cb 4d 5f 40
       0.82925594 1.2768506 -2.3726227 3.489123
000250 94 a8 99 40 07 f7 15 40 2a 25 cf be e3 b5 bf bf
       4.8018284 2.3432024 -0.4045804 -1.4977382
000260 bf 0a 84 3f 68 6b f0 3f 3b 56 b0 3f 3b ce dd 40
       1.031578 1.8782778 1.3776315 6.9314246
000270 dd a6 a5 3f f9 84 0c 3f 2e 86 31 bf 98 d7 31 bf
       1.2941548 0.548904 -0.69345367 -0.69469595
000280 fa d3 4d be 7e 9f 69 bd c6 16 52 bd 9e 9b 80 bf
       -0.20100394 -0.05703687 -0.05129125 -1.0047491
000290 b2 f6 19 c0 27 9e ae be 67 e5 0b bf 2c 92 d8 be
       -2.405682 -0.34105036 -0.54646915 -0.4229902
0002a0 d6 c8 0e bd f7 7f 2f c0 10 25 54 3f a1 4c b2 40
       -0.0348595 -2.7421854 0.8286905 5.571854
0002b0 1d 1a 9f be 85 31 92 3f 5c d2 dd 3f 7a 68 35 3f
       -0.3107461 1.1421362 1.7329822 0.70862544
0002c0 35 a4 52 bf 1e 6c 16 3f 9f 4e 34 bf 34 c6 68 3f
       -0.8228181 0.58758724 -0.70432466 0.90927434
0002d0 65 54 fd be 8d eb e3 be ee e9 48 3e f8 10 97 be
       -0.4947845 -0.44515648 0.19620487 -0.29505134
0002e0 2f 42 e8 bd c9 bd 02 40 27 9d 29 40 58 31 81 40
       -0.113407485 2.0428336 2.6502168 4.0372734
0002f0 97 ad 22 c0 e0 fc 3b bf dd 0d 87 bf c2 fb 86 bf
       -2.541845 -0.7343273 -1.0551106 -1.054558
000300 90 2f 19 3f ba e1 c3 bf 93 b7 87 3f 45 a6 43 bf
       0.598382 -1.5303261 1.0602897 -0.7642558
000310 58 56 02 bf 00 b0 37 bf 2b 8a a1 be 5e e9 c2 be
       -0.50913 -0.7175293 -0.31550726 -0.3806867
000320 76 29 e9 be d2 14 4d 3f 5b 67 02 3e a4 67 8d be
       -0.45539445 0.80109894 0.1273474 -0.27618134
000330 e9 73 25 3f e3 2b 14 40 1a ba 0f bf d3 ed 3d bf
       0.6462999 2.3151786 -0.56143343 -0.74191016
000340 05 99 e9 3e 8f 66 3d 3e 9b d5 ca bf 03 8c 96 3f
       0.45624557 0.18496154 -1.5846437 1.1761478
000350 f2 0f 21 3f ed f5 44 bf f3 1d 85 be 3f 34 1c bf
       0.62914956 -0.7693775 -0.25999412 -0.6101722
000360 67 6f cc be 9d a5 9a 3f c3 25 ef bd ea 0d 99 3d
       -0.39928743 1.2081791 -0.11677124 0.07473357
000370 e8 e1 c0 bd 2e 8f b7 3f d1 d0 bc bf 71 61 2d bf
       -0.09418088 1.434057 -1.4751226 -0.6772681
000380 31 cb c9 bf 9e b6 6c 3f 39 dd e4 3f 1e 14 32 c0
       -1.5765134 0.9246615 1.7880012 -2.7824779
000390 bb 36 b8 be 80 ed 09 40 5f 61 80 bf 84 cf 8d be
       -0.35979256 2.1551208 -1.0029715 -0.27697384
0003a0 f8 b8 19 c0 c5 8d fa 3f f2 06 83 c0 1a 83 96 40
       -2.4019146 1.9574515 -4.094598 4.7035036
0003b0 37 ec 6f 3f 90 fb 60 3f eb b3 c5 be f4 13 61 bf
       0.9371981 0.87883854 -0.3861383 -0.8792107
0003c0 07 a0 00 c0 06 0c e4 3d 58 ae 25 bf b1 d8 e6 3e
       -2.0097673 0.11135106 -0.6471915 0.45087197
0003d0 33 14 19 c0 9e 7e d7 3f bc 6a 4b 3d c0 4b 13 bf
       -2.3918579 1.6835515 0.049662337 -0.5753746
0003e0 32 18 29 3f 30 04 7a bf da be 82 3f 9e 13 b6 bf
       0.66052544 -0.9766264 1.0214493 -1.4224737
0003f0 aa 4d 86 3e 03 ef ba bf 0c 16 49 be 9a b7 42 bf
       0.26231128 -1.460419 -0.19637316 -0.76061404

fc1.bias f4 [64]
000000 fe ca ae be 07 b3 58 be 37 31 e8 bf 91 fb ff 3e
       -0.34139246 -0.21162044 -1.8140019 0.49996617
000010 59 54 81 bf df 7c 54 3e 20 21 ec bf 4a f8 8c 3c
       -1.0103866 0.2075076 -1.8447609 0.017208237
000020 5d a3 39 bf b9 a8 1f bf 8e f1 c5 3e a0 bd af 3d
       -0.725149 -0.62366825 0.38660854 0.0858109
000030 0a 0d 39 bf 3c d6 16 bf a3 74 d3 3e 67 f2 ca bf
       -0.7228552 -0.58920646 0.41299924 -1.5855225
000040 60 f4 9c 3c f0 fe 20 ba 28 3d 2c 3f 54 e8 b8 be
       0.019159496 -0.0006141504 0.6728082 -0.36114752
000050 85 5f bc be 33 5c c6 3e 23 0e 4c 3f 55 50 c6 be
       -0.36791626 0.38742217 0.7970907 -0.38733163
000060 53 54 7d be e4 83 0c be c9 6a 3a bf 09 ef 51 be
       -0.24739198 -0.13722187 -0.7281919 -0.20501341
000070 89 52 ed 3e 9c b7 c7 be 75 8f 56 3f 7e 15 68 3d
       0.46352032 -0.3900727 0.8381265 0.05666112
000080 3c 52 a1 3e b0 c8 96 3e 08 bc 74 bf 20 93 d2 be
       0.31508052 0.29449987 -0.9559941 -0.41127872
000090 be cc dc bf dc db d1 3d a1 e1 f9 bd 38 d5 91 bd
       -1.7249982 0.10247013 -0.122012384 -0.071207464
0000a0 80 c1 95 3e 5e 64 ff 3e 61 f9 21 3e 34 03 f8 3d
       0.2924919 0.49881262 0.15817787 0.12109986
0000b0 75 3d 54 be bc 7b 46 bf cb 2e 9c bf 07 32 21 3f
       -0.20726569 -0.77532554 -1.220178 0.6296696
0000c0 0a ca 3a bf 24 bb 95 3e aa 5e 3c 3f 5b 37 ee 3e
       -0.7296454 0.2924434 0.73581946 0.46526608
0000d0 2f 60 d1 bf 91 ec df bf bb bd c0 3e 38 64 e1 3e
       -1.6357478 -1.7494069 0.37644753 0.44021773
0000e0 c9 78 f7 bf fe 8d 49 3d 7a a3 eb 3e a7 50 e1 bf
       -1.9333736 0.04920768 0.4602316 -1.7602738
0000f0 c2 44 92 3e 49 04 9f be 23 e9 85 bf 82 9d 9f 3e
       0.28568083 -0.31057957 -1.0461773 0.31174856

fc2.weight f4 [64, 64]
000000 e3 80 99 bd 4c 4e 1d 3d da 76 1d 3d 11 2a c3 bd
       -0.07495286 0.038404748 0.038443424 -0.09529508
000010 1a ac 3b 3b ca 25 c7 bc 49 73 bc bc bf b6 78 3d
       0.0028636516 -0.024310011 -0.023004191 0.060721155
000020 1d 8b f1 bd 82 66 89 bd 6b 1e 05 be c7 6c b8 bc
       -0.11794112 -0.06709005 -0.12999885 -0.022512807
000030 04 b1 08 3c 02 43 63 3d 6a 88 87 bd aa a8 39 bc
       0.008342985 0.055483826 -0.06617816 -0.011331717
000040 2d b4 b5 3d 5f bf 51 3d 35 ae 04 be 2c 5c 95 bd
       0.088722564 0.051207896 -0.1295708 -0.07292971
000050 a9 4d ba 3c 22 a9 c0 bd af 31 74 bd 80 ea 66 3d
       0.02274211 -0.094072595 -0.059617694 0.05637598
000060 c2 6d 4c bc 64 d8 c1 bd 64 cf a7 3c 36 f7 a8 3d
       -0.01247734 -0.09465101 0.020484634 0.08250277
000070 83 f1 c4 3b a4 03 4c bd 7c f2 d0 3c d2 10 4d 3d
       0.0060102358 -0.04980816 0.02550625 0.05006487
000080 44 89 f3 bd 3d 93 6f bd bb 91 b8 bd 10 31 e1 bd
       -0.11891416 -0.058490027 -0.09012171 -0.10995686
000090 d1 4e 84 3d de e8 4a 3d aa 13 9d bd 01 17 eb 3d
       0.064603455 0.049538486 -0.07669766 0.11478997
0000a0 b3 25 81 bd db 0f c5 3c 91 ce c0 3d ae 67 ab bc
       -0.06306019 0.024055412 0.094143994 -0.020923462
0000b0 3d 97 eb bd 97 db 34 3b 51 ad 15 bd dd ea 00 be
       -0.11503456 0.0027596706 -0.03654224 -0.12589593
0000c0 3d 09 5a bd 37 1c 1f 3d e4 ce d0 3d 31 6a b1 3d
       -0.053231467 0.038845267 0.10195711 0.086628325
0000d0 7d dd bc bd cd 2e 55 bd 73 4a 3b bd da 99 2f bd
       -0.09221933 -0.052046586 -0.045725297 -0.042871334
0000e0 08 ea c4 bd 0c a2 05 be d2 48 b6 3d b3 a9 d3 bc
       -0.096149504 -0.13050097 0.08900608 -0.025837755
0000f0 66 a4 88 3d 55 38 67 3c 08 8e 71 3d 8c df 90 3d
       0.066719815 0.014112552 0.058973342 0.07073888
000100 f7 82 64 bf cb b2 aa 3f 6f df 5b bf 57 18 67 3f
       -0.89262336 1.3335813 -0.8588781 0.90271515
000110 a1 59 4b bf aa 03 bf 3e d7 37 5b bf cb 20 89 be
       -0.7943364 0.37307483 -0.8563208 -0.26782832
000120 1f fb bf 3e 59 bd 67 bf e6 4c c9 3e b5 f6 c6 3e
       0.37496278 -0.90523297 0.3931648 0.38860098
000130 5f ac 02 3f 9d 9a f8 be b2 7b 08 3e e7 5d 91 bf
       0.5104427 -0.4855546 0.13328436 -1.1356782
000140 b3 3c e3 3e 07 08 56 bf 0a 2e a6 3f fd 02 a0 3f
       0.44382247 -0.83606 1.29828 1.2500912
000150 78 81 d1 3e b6 6f 0e c0 67 7e bc 3e 08 d4 99 3f
       0.4091909 -2.2255683 0.36815187 1.2017832
000160 b6 ac ea 3e f9 97 20 bf 68 70 c1 3e 99 91 84 bf
       0.45834893 -0.6273189 0.37781072 -1.0356933
000170 9f c1 cd 3e 0f 92 00 40 e6 d0 ba 3e c0 20 c6 3e
       0.40186784 2.0089147 0.36487502 0.3869686
000180 e7 6c 94 3e d3 06 92 3e b2 f2 be bf 85 f7 3c 3f
       0.28989336 0.2852083 -1.4917815 0.73815185
000190 75 e2 b7 bf 9b f7 d5 3e 1c 85 d2 3e cc ef 95 3e
       -1.4365984 0.4179047 0.4111718 0.29284513
0001a0 69 10 1d 3f 73 56 ff 3e ce f4 5c 3f 37 d6 4b bf
       0.61353165 0.49870643 0.8631104 -0.7962374
0001b0 25 cd d5 bf b0 a0 7b bf 8e 7d 89 bf 55 a1 79 3f
       -1.670323 -0.98292065 -1.0741441 0.975118
0001c0 38 2b a3 bf 36 30 0d 3f 8f 45 33 3f ca 17 e8 3e
       -1.2747564 0.5515169 0.70028013 0.4533065
0001d0 f1 11 95 bf 60 30 87 bf 29 b6 6c bf 85 1a 26 3f
       -1.16461 -1.0561638 -0.92465454 0.64884216
0001e0 2b f5 08 bf 95 df 8e 3f 0f 0c 91 bf b9 8e 72 bf
       -0.53499097 1.1161982 -1.1331805 -0.9474903
0001f0 d8 69 67 3f f3 6f 05 3f 1a 52 83 bf 9f 10 78 3f
       0.9039588 0.52123946 -1.025943 0.9690036
000200 47 fc ac bf 36 50 65 3f bf fb c6 bf 03 1c 14 3f
       -1.3514489 0.8957552 -1.5545577 0.5785524
000210 ac d9 ea bf 3d b5 0c 3f f1 2b 04 c0 85 fe 6b bf
       -1.8347678 0.5496405 -2.065182 -0.9218524
000220 d6 63 c1 3e 67 4b b2 bf 55 ba 00 bd f2 01 a1 3e
       0.3777148 -1.3929261 -0.0314277 0.31446797
000230 8b d4 65 3f 92 1b 6f bf d6 39 cd 3d 88 54 17 c0
       0.8977744 -0.93401444 0.10020797 -2.3645344
000240 4c 11 07 3f 5f 77 c3 bf da 1b 13 be d8 9c 38 3e
       0.5276077 -1.5270804 -0.14366093 0.18028581
000250 90 eb 31 3f 37 b1 91 c0 6e 2e a4 bd 37 d6 08 3f
       0.69500065 -4.5528827 -0.08016668 0.53451866
000260 e8 4f 21 3f 9f ca b1 bf c2 9b 4c 3e 48 d9 93 bf
       0.6301255 -1.388996 0.19981292 -1.1550684
000270 44 33 b8 3d 8f af d0 3e 7d fc 94 be 2b 4e e6 3e
       0.08994153 0.4075894 -0.29098883 0.44981512
000280 62 73 b6 3e e4 3b fd 3e f9 1b 0b c0 7d 4a 77 bf
       0.35634905 0.49459755 -2.1735823 -0.96598035
000290 1c bd 10 c0 12 55 67 3e 55 49 3f 3f c5 f5 3f 3e
       -2.2615423 0.22591045 0.7472127 0.18746097
0002a0 85 3a 10 3f ab 23 be 3e 29 1e 80 3e 5a c9 9b bf
       0.56339294 0.37136588 0.2502301 -1.2170823
0002b0 54 5a 76 c0 1f d6 d1 bf be 90 db bf 62 12 b5 be
       -3.8492632 -1.639347 -1.7153547 -0.35365587
0002c0 bb 55 d9 bf 3d 85 01 bf f3 5a e5 3e 7f e8 88 3e
       -1.6979288 -0.5059393 0.4479595 0.2673988
0002d0 ca 5e d9 bf 7e ce cc bf da c4 07 c0 f8 2c 92 3d
       -1.6982052 -1.6000516 -2.1213899 0.07137483
0002e0 2c de d2 bf 61 89 d4 3e 5b 31 c1 bf 75 85 2e c0
       -1.6474051 0.41511062 -1.5093187 -2.7268956
0002f0 a8 7b 8b bc 15 02 15 3f e3 04 06 c0 a6 bc f2 3e
       -0.017026737 0.582063 -2.0940483 0.47409552
000300 18 c9 d5 3f 1f d6 77 3e f6 65 71 bf 89 ce 4e 3f
       1.6701994 0.24202774 -0.94296205 0.807839
000310 77 ce 2b bf f3 ce cc be bd 6a c4 be 70 9d ed 3f
       -0.67111915 -0.4000164 -0.38362685 1.8563671
000320 8b 34 44 3e 1e e4 c1 3f 1a 10 8e 3f 37 c4 2b 3f
       0.19160669 1.5147741 1.1098664 0.67096275
000330 3d 85 38 3d f8 ed d3 3f 38 26 67 3e 9a 3c 1a be
       0.04504894 1.6556997 0.22573173 -0.1506218
000340 9a f5 11 3e d1 19 8d 3f 5a f6 14 3f 8d 2d 42 bd
       0.14253846 1.1023504 0.581884 -0.04740672
000350 dd b7 00 3f aa 53 3b 3f 8a d1 67 3f 8a 4c e6 3e
       0.50280553 0.73174536 0.90554106 0.4498027
000360 80 14 d3 3e 33 56 5c 3f 53 f6 29 bf f8 af a4 3f
       0.41226578 0.8606903 -0.66391486 1.2866201
000370 37 e8 56 3f 66 c2 20 bf a1 5a a7 3f 25 ef 40 3f
       0.8394808 -0.6279663 1.3074533 0.75364906
000380 db 40 92 be 6e bc 80 3f 08 43 be 3e 47 0a 02 bf
       -0.28565106 1.0057504 0.37160516 -0.5079693
000390 98 10 b9 be fb cb 6a 3f 6e a0 45 3f 6c 9e b9 3e
       -0.36145473 0.917175 0.7719792 0.3625368
0003a0 ad e5 47 3f aa b3 87 3f 63 f2 43 3f cd be 47 3f
       0.7808483 1.0601704 0.7654173 0.78025514
0003b0 d6 74 a7 3f 7a f4 06 3f 71 4d 40 3f 88 45 d8 3e
       1.308253 0.5271679 0.75118166 0.42240548
0003c0 a2 a8 de 3f 1d d1 ab 3f c8 77 83 3f 57 75 31 3f
       1.7395213 1.3423191 1.0270929 0.6931967
0003d0 91 7a e4 be 54 35 89 3d 64 9b 02 40 26 16 71 3f
       -0.4462476 0.06699625 2.0407343 0.9417442
0003e0 22 a3 50 bf 23 56 39 3f d8 ea 90 3f 4a 6e ff bd
       -0.8149892 0.7239706 1.1321669 -0.12472208
0003f0 e7 c9 9a 3f 1d 82 fc 3e d1 6f fb be cf 46 fc 3e
       1.2092866 0.4931802 -0.49108747 0.49272773

fc2.bias f4 [64]
000000 8d d1 22 bd 3e 0c c6 3e c3 b8 e7 bd 9e d0 5d 3f
       -0.039750624 0.38681215 -0.113145374 0.8664645
000010 62 3b 6e bd 2b 0d ca 3e 49 61 b1 3e 80 9e d6 3a
       -0.0581621 0.3946317 0.34644535 0.0016374141
000020 5d 8c 46 3d ec 81 92 3a a6 01 e0 bd 2f 8f 92 bd
       0.048473705 0.0011177636 -0.109378144 -0.07156216
000030 fb 84 08 3d 80 3b 2f 3d 97 0e bc 3e 90 b1 58 3d
       0.033329945 0.042781353 0.3672988 0.05290371
000040 01 72 12 3e 24 14 42 3d c3 c9 68 bc 4b d4 32 bd
       0.14301302 0.04738249 -0.01420826 -0.04365949
000050 e8 61 12 bc 21 d6 6c bd ba 26 3e 3c 8a 90 8a 3d
       -0.0089344755 -0.057821397 0.011605913 0.0676585
000060 d4 0c 23 be c7 fc 68 3d 83 ef fc 3e 28 b4 38 3d
       -0.15922862 0.056881692 0.49401483 0.045093685
000070 3f bf a9 bc 7a c7 ce 3e fb e3 5e 3d 21 af cd 3d
       -0.020721076 0.40386564 0.054416638 0.10043169
000080 f6 38 ed 3e 44 18 c9 3d 96 64 25 be d9 9b d4 bd
       0.4633252 0.098190814 -0.16151652 -0.10381288
000090 50 c2 0f 3e 0a 92 d7 3e f8 9c 09 3e da f3 43 bd
       0.14038968 0.42103606 0.13438785 -0.047839977
0000a0 cd 6c c5 3d 0a bd ea bd 77 d5 81 bc 49 5c ea bd
       0.09639893 -0.114618376 -0.015848858 -0.11443383
0000b0 ab 70 0e 3c 4b a1 d6 bd f7 eb a4 bd c5 1c 5f bd
       0.008693854 -0.10479983 -0.08052819 -0.054470796
0000c0 7d 29 36 bd a7 98 ad 3e cc 3c 03 be 06 a8 5c bd
       -0.04447316 0.33905527 -0.12816161 -0.053871177
0000d0 58 65 9e 3d 1c 58 24 3c 72 ae 8b bd 8c 75 6b bd
       0.077341735 0.010030773 -0.06820382 -0.05748515
0000e0 41 fb 1e be c9 30 c9 bd 0c e5 8a 3e 70 c9 33 bd
       -0.15525533 -0.09823758 0.27127874 -0.043893278
0000f0 76 2a bf bd c0 0c a2 3c ae 59 c9 3d 16 7c f6 bd
       -0.09334271 0.01978147 0.09831558 -0.12035386

fc3.weight f4 [4, 64]
000000 9c b1 fa 3d 41 29 05 c0 e1 5f fa bf c5 8e d7 3f
       0.122409075 -2.080643 -1.956051 1.6840445
000010 45 89 ee be 76 7d a0 3f 01 be 0c c0 a6 b0 c2 bd
       -0.46589103 1.2538288 -2.199097 -0.09506349
000020 11 a5 fa be a2 11 39 bf 0e 40 fe 3d f6 b3 38 bf
       -0.4895406 -0.7229253 0.12414561 -0.721496
000030 ea 79 e3 3d 42 89 bd be 09 5c 98 3f ac a5 df bd
       0.11107238 -0.37018782 1.1903087 -0.10920271
000040 e1 46 80 bf 3e 0c c6 3e fe f7 ca 3d fe 82 4c bd
       -1.002163 0.38681215 0.09910582 -0.04992961
000050 59 b8 32 bf 46 72 1b bf 54 8d 54 bf 70 5f 7f 3e
       -0.6981254 -0.6072124 -0.8302815 0.2493875
000060 24 92 2d bf 2c 9c 99 bf ef f2 ea bf cb 56 80 bf
       -0.6780112 -1.2000785 -1.8355387 -1.0026487
000070 af ea 69 3d 72 85 21 40 e5 6b 02 40 9f 94 25 40
       0.057108577 2.5237699 2.0378354 2.587196
000080 e1 14 01 40 f3 ea f6 3f c6 3d 1e bf 21 d3 4a bf
       2.0168993 1.9290451 -0.6181301 -0.7922841
000090 3c 3a ec bf c6 35 2c 3f be 13 e5 bf 3f 81 18 bf
       -1.8455272 0.6726955 -1.789665 -0.59572214
0000a0 99 27 dd 3e 04 77 c3 be 7e fe 9f bd 38 34 f2 be
       0.43194273 -0.3817674 -0.078122124 -0.47305465
0000b0 62 a0 5e bf 28 f7 69 bf 7c 89 eb bd dd 3e 34 bf
       -0.86963475 -0.91392756 -0.115008324 -0.7040842
0000c0 11 ae e3 be db 63 cf bf 6b 85 6f bf c6 aa 1a bf
       -0.4446874 -1.6202348 -0.93562955 -0.6041683
0000d0 d1 3c 07 bf c1 a7 38 bf a1 8e 10 bf 4f 5d 5f bf
       -0.52827173 -0.7213097 -0.56467634 -0.8725175
0000e0 dc b2 a3 3c d4 53 2f bf 15 95 1f 3f 6e c9 ca bc
       0.019982748 -0.68487287 0.62336856 -0.024754252
0000f0 da 50 6a bf 69 93 bd 3e 9f 89 04 c0 62 00 83 3d
       -0.9152962 0.37026528 -2.0708997 0.063965574
000100 30 07 e4 3c 02 b5 f9 bf ec 07 22 c0 65 23 fc 3f
       0.027835459 -1.9508364 -2.5317335 1.9698302
000110 d6 b2 44 bf 26 dc 78 3f e5 36 fc bf 7a 61 e3 3d
       -0.7683538 0.9721092 -1.9704252 0.111025766
000120 32 06 29 bf 29 26 84 bf 69 d4 30 3d 3a 2e 62 bf
       -0.6602508 -1.0324146 0.04317132 -0.88351786
000130 bb c3 ec bb dd f8 1b bf b3 4e cc 3f 10 06 16 bc
       -0.0072254813 -0.6092661 1.5961517 -0.009156719
000140 1f b1 f3 bf c9 e2 eb 3e c9 e7 86 bd b5 d1 e6 3d
       -1.9038428 0.4607146 -0.06587178 0.11270467
000150 4f e8 3d bf 9d 6b 98 be bc 7d 66 bf d0 7b 56 3f
       -0.741826 -0.29769602 -0.90035605 0.8378267
000160 0a fb 44 bf d4 5e ab bf e2 cc e2 bf 85 aa 30 bf
       -0.76945555 -1.3388314 -1.7718775 -0.6901019
000170 01 4c e6 3d 83 38 49 40 f6 f6 07 40 c8 94 ce 3f
       0.11244965 3.1440742 2.1244483 1.6139154
000180 b4 b5 e5 3f 9f 6e d8 3f 23 22 13 bf e0 f8 84 bf
       1.7946076 1.6908759 -0.57473963 -1.0388451
000190 af 40 52 bf 1d bf 96 3e 7c 5e 0a c0 8a d1 4b bf
       -0.8212995 0.29442683 -2.1620169 -0.79616606
0001a0 19 73 db 3e a6 c2 0e bf e7 73 44 3d a5 c4 46 bf
       0.4286125 -0.5576576 0.047962096 -0.77643806
0001b0 71 8c ca be b5 30 31 bf 33 94 f7 3d e4 d7 22 bf
       -0.39560273 -0.69214946 0.12088814 -0.6361067
0001c0 6e b9 27 bf ff a9 06 c0 64 32 08 bf 28 0d 04 bf
       -0.6551732 -2.1041257 -0.5320189 -0.51582575
0001d0 17 50 1c bf bc 27 26 bf 36 c2 5b bf 98 fb 73 bf
       -0.6105971 -0.6490438 -0.8584322 -0.95305777
0001e0 50 a2 cc 3d 33 53 36 bf 6a 85 ce 3f d0 ff 84 3c
       0.09991896 -0.712207 1.6134465 0.016235262
0001f0 7d c9 86 bf 95 62 0c 3f c0 d7 d1 bf b0 fe 26 3d
       -1.0530239 0.54837924 -1.6393967 0.040770233
000200 b7 75 ee 3d 97 50 da bf b2 0d ea bf fd 94 91 3f
       0.11643546 -1.7055844 -1.828543 1.1373593
000210 77 eb 35 bf e5 aa f5 3f 1d 95 0d c0 96 39 e9 bd
       -0.71062416 1.9192778 -2.2122262 -0.11387937
000220 52 b8 04 bf be af d2 be ec 92 1c 3d 09 2a 16 bf
       -0.5184375 -0.41149706 0.038226053 -0.5865789
000230 9e 2e a5 3d 24 81 3e bf f8 e2 f4 3f a0 1b d3 bb
       0.08065532 -0.744158 1.9131765 -0.006442502
000240 e8 9d e5 bf 92 74 91 be f4 75 7f 3d 48 35 90 3d
       -1.7938814 -0.2840925 0.06236835 0.070414126
000250 c8 df ea be 87 8f 59 bf 19 1e 27 bf 28 8b 36 bf
       -0.45873857 -0.8498463 -0.652803 -0.71306086
000260 86 ee 18 bf ab 85 08 bf 95 7f d9 bf d0 11 e7 be
       -0.5973896 -0.5332896 -1.699206 -0.45130777
000270 67 a2 d7 3d 67 c6 ba 3f 7a 07 20 40 a8 3d a2 3f
       0.10529023 1.4591798 2.5004563 1.2675066
000280 0c ad ff 3f 6c f8 00 40 58 d0 26 bf e3 09 0a bf
       1.9974685 2.0151625 -0.6516166 -0.53921336
000290 21 63 bf bf bf c4 03 40 d9 33 0b c0 bb ba 1a bf
       -1.4952127 2.0588834 -2.1750395 -0.6044118
0002a0 b8 72 b8 be de 7d 17 bf f9 c3 95 3c b4 59 21 bf
       -0.36025023 -0.59176433 0.018281924 -0.630275
0002b0 f4 36 0c bf 00 b1 ce be 14 58 1c bd f7 94 12 bf
       -0.5477135 -0.40369415 -0.038169935 -0.5725855
0002c0 32 fa 19 bf 0b 95 14 c0 5b 6c 51 bf 95 3b 25 bf
       -0.6014739 -2.3215969 -0.8180596 -0.6454404
0002d0 38 7d 2c bf 75 67 10 bf 06 c9 21 bf 46 7c 13 bf
       -0.6737857 -0.5640786 -0.6319736 -0.576115
0002e0 6d a4 a3 3d 19 a6 35 bf 8d 4b 4a c0 fa c3 c0 3d
       0.07990346 -0.7095657 -3.1608613 0.094123796
0002f0 44 5e 26 bf 93 c4 4b be 6d fd 5a bf a8 40 25 3d
       -0.6498759 -0.19899206 -0.8554295 0.040344864
000300 f8 76 a8 3d 13 de f9 bf 85 c0 b2 bf 90 aa dd 3f
       0.082258165 -1.9520897 -1.3965002 1.7317677
000310 13 fb 22 bf 45 f6 9d 3f 35 3d 08 c0 98 df 6a bd
       -0.6366436 1.234078 -2.1287358 -0.057342142
000320 ff b2 c2 be 74 0d 39 bf 08 df b8 bc 03 63 40 bf
       -0.38027188 -0.7228615 -0.022567287 -0.7515108
000330 52 72 75 3b 6a b9 d8 be e0 25 16 40 5c 4c e0 bd
       0.0037452173 -0.4232896 2.3460617 -0.109520644
000340 87 7a 8b 3e 0c a1 6b 3e 7e b8 81 3d 60 31 49 3d
       0.27241918 0.23010653 0.06334017 0.049119353
000350 41 37 2b bf 21 7f 56 bf 0a 96 10 bf fe ce 1a bf
       -0.66881186 -0.83787733 -0.5647894 -0.60472095
000360 cf 94 fe be 76 05 dc bf 3c d4 d9 bf a4 5b 6d bf
       -0.49722907 -1.7189167 -1.7017894 -0.9271796
000370 83 f7 a9 bd 96 76 21 40 ca 7e f1 3f ea 8d 86 3f
       -0.08299162 2.522863 1.8866818 1.0512059
000380 cc fc c4 3f 88 ce c9 3f aa 73 26 bf 39 f7 d2 be
       1.5389647 1.5766153 -0.6502024 -0.4120424
000390 83 ad 37 c0 f3 6d 2f 3f 10 86 03 c0 0c f9 d9 be
       -2.8699653 0.68527144 -2.0550575 -0.4257282
0003a0 76 2a 9f 3e cd d4 dd be d9 22 76 3d 07 6b 35 bf
       0.31087083 -0.43326417 0.060091827 -0.70866436
0003b0 48 c0 50 bf fe ad 61 bf 02 e7 b6 3d 46 c6 16 bf
       -0.815434 -0.88156116 0.0893078 -0.5889629
0003c0 49 13 11 bf 9f f3 cc bf 87 9c 70 bf 55 0b e5 be
       -0.5667005 -1.6011847 -0.9398884 -0.44735208
0003d0 d4 38 de be b8 0f e4 be dc 8a 27 bf d3 81 18 bf
       -0.4340273 -0.44543242 -0.6544626 -0.59573096
0003e0 06 31 d9 3d 05 56 1e bf 7a c9 8d 3f fc 1b 68 bd
       0.106050536 -0.61850005 1.1077111 -0.056667313
0003f0 78 89 0b bf a1 d5 6e 3e a7 71 91 bf 24 0f 7a 3d
       -0.54506636 0.2332368 -1.1362809 0.061049595

fc3.bias f4 [4]
000000 a8 0e a1 3e 88 06 21 3d b6 41 38 3e 6a 79 79 3d
       0.31456494 0.03931287 0.17993817 0.060906805
