nn_image_label_1/resources/trained_models/birds_vs_airplanes.pt (torch, 74703 bytes, 8 tensors)

conv1.weight f4 [16, 3, 3, 3]
0	0x3db3137b	0.0874395
1	0xbda72851	-0.081619866
2	0xbe269d35	-0.16270907
3	0x3d90fbe4	0.07079294
4	0x3e3d3556	0.18477377
5	0xbd5c8f5d	-0.05384766
6	0xbb6256e7	-0.003453666
7	0xbccfbd67	-0.025358869
8	0x3e4c59ba	0.19956103
9	0x3c4860db	0.012230123
10	0xbe71600f	-0.235718
11	0xbe53f581	-0.20699121
12	0x3e882d4b	0.26597056
13	0x3bfb36b9	0.0076664356
14	0xbe028baa	-0.1274859
15	0x3e5498bc	0.20761389
16	0x3e3fd9b9	0.18735398
17	0xbd760647	-0.06006458
18	0xbe35ee6c	-0.17766732
19	0x3dacecb0	0.08443582
20	0xbe411532	-0.18855742
21	0xbcaba102	-0.020950798
22	0xbe0fc01f	-0.14038132
23	0x3da0c959	0.07850904
24	0xbdc5b648	-0.09653908
25	0x3e044491	0.12916781
26	0x3e143293	0.14472418
27	0xbad61234	-0.0016332329
28	0xbc836b6d	-0.016042436
29	0x3e15c7ef	0.1462705
30	0xbd04991a	-0.03237257
31	0xbe9c785f	-0.30560586
32	0xba3c841d	-0.0007191317
33	0xbe0302ad	-0.1279399
34	0xbd94c76e	-0.07264601
35	0x3e562a45	0.20914562
36	0x3e8d18f8	0.27558112
37	0xbc2a9897	-0.010412357
38	0xbc9f43a3	-0.019441431
39	0x3e2ff711	0.17184092
40	0xbe94e4b3	-0.29080734
41	0xbe1e669b	-0.15468828
42	0x3e4a853a	0.19777384
43	0xbd2721a9	-0.040803585
44	0x3e8d03ba	0.27541906
45	0x3e33f5bd	0.1757421
46	0x3d519018	0.05116281
47	0xbd49105c	-0.049087867
48	0x3d221d96	0.039578997
49	0xbda23d20	-0.07921815
50	0x3df67562	0.12034108
51	0xbe24130d	-0.16022892
52	0xbe10cf63	-0.14141612
53	0xbd6736bf	-0.056448694
54	0x3dc9117d	0.09817789
55	0xbe80b43f	-0.25137517
56	0xbda70c4b	-0.081566416
57	0xbe86596c	-0.26240098
58	0x3d0a2ef8	0.0337362
59	0x3e7f1294	0.2490943
60	0xbd9c2eb7	-0.07626098
61	0x3e3aedfc	0.18254846
62	0xbe20487f	-0.15652655
63	0xbe35c815	-0.17752106
64	0xbe3c0942	-0.18362907
65	0x3ddbdeff	0.107358925
66	0x3dadcbc1	0.084861286
67	0x3dcb3a68	0.099232495
68	0x3e7b09b8	0.24515426
69	0xbc990246	-0.018677842
70	0x3daed5a4	0.085368425
71	0xbc945e79	-0.018111454
72	0xbdf4e65a	-0.119579986
73	0xbe93bd1a	-0.2885521
74	0xbdfb0235	-0.1225628
75	0xbe191e5a	-0.14952984
76	0x3de88a98	0.1135456
77	0x3d890179	0.06689734
78	0x3c2c1c79	0.010504835
79	0x3e14093e	0.1445665
80	0xbd89183b	-0.06694075
81	0xbd75810c	-0.05993752
82	0xbe09cf6c	-0.13458031
83	0xbc8b239c	-0.016984753
84	0x3d963b09	0.07335479
85	0xbe1a9e64	-0.15099484
86	0x3e7b538a	0.24543586
87	0x3d67bc83	0.056576263
88	0x3e0c9712	0.13729504
89	0xbe77f931	-0.24216153
90	0x3dc7a878	0.0974893
91	0x3c06e7f4	0.008234013
92	0x3bade3ab	0.005306681
93	0xbe47ca17	-0.19510685
94	0x3d9a8fc6	0.07546954
95	0x3cd465eb	0.025927505
96	0x3d76816c	0.06018202
97	0x3cd81f63	0.026382154
98	0x3b2208dd	0.0024724521
99	0x3cff7bb6	0.03118692
100	0xbd2e7490	-0.04259163
101	0x3d8e5645	0.06950048
102	0x3c9b1bae	0.018934097
103	0x3e2f0fb6	0.17095837
104	0x3e23d03c	0.15997404
105	0x3e862981	0.2620354
106	0x3e6f00d9	0.23340167
107	0xbddc9099	-0.10769767
108	0xbaf289f3	-0.0018504247
109	0xbe095cd5	-0.13414319
110	0xbe27a387	-0.16370974
111	0x3df4136f	0.11917769
112	0x3d188bff	0.037242886
113	0xbcb4700c	-0.022026084
114	0x3cfe422f	0.031037418
115	0x3e0fc559	0.14040126
116	0x3d81876b	0.06324657
117	0x3e25fc74	0.16209584
118	0x3d956a34	0.07295647
119	0xbd007a76	-0.031366788
120	0xbdb9e415	-0.09076706
121	0xbe782f3d	-0.2423677
122	0xbe645756	-0.22298941
123	0xbdf9fd50	-0.12206519
124	0xbe689e89	-0.22716726
125	0xbe600864	-0.21878201
126	0x3e7fc42e	0.2497718
127	0xbccf541b	-0.02530866
128	0xbea0b712	-0.31389672
129	0x3e4aa24c	0.19788474
130	0x3dc77b0f	0.097402684
131	0xbe9ca07a	-0.30591184
132	0xbdacbe74	-0.084347636
133	0xbcbf56ef	-0.023356883
134	0xbdb0b4ee	-0.086282596
135	0xbe50517c	-0.20343584
136	0xbdcfff59	-0.101561256
137	0xbe9a8c62	-0.3018523
138	0xbdae630b	-0.08514985
139	0xbd7b5198	-0.06135711
140	0x3df50134	0.1196312
141	0x3db98c50	0.090599656
142	0x3e911f87	0.28344366
143	0x3d719d36	0.05898782
144	0xbe43270f	-0.19057868
145	0xbd8f0b99	-0.06984634
146	0xbe5aff74	-0.2138651
147	0x3e81b981	0.2533684
148	0x3e24b910	0.1608622
149	0xbdbb6c9b	-0.09151574
150	0x3e2cdf90	0.16882157
151	0x3e1126f9	0.14175023
152	0x3e3456ab	0.17611186
153	0xbdf9eea6	-0.12203722
154	0x3d4c20cc	0.049835965
155	0xbe4e7eef	-0.20165609
156	0xbe0e2832	-0.13882521
157	0x3dda7070	0.10665977
158	0x3c6d35a5	0.014478122
159	0x3c90cbe3	0.017675346
160	0x3cf51bed	0.029920543
161	0xbe0fde0a	-0.14049545
162	0xbe879189	-0.26478222
163	0xbe8c102e	-0.27356094
164	0xbd0ae7e7	-0.033912566
165	0xbe0da63c	-0.13832945
166	0xbd3614e3	-0.044453513
167	0xbd07b9e8	-0.03313628
168	0xbe08c406	-0.13356027
169	0x3dd09d31	0.10186232
170	0xbe3d40fd	-0.18481822
171	0x3c60e05a	0.013725365
172	0x3d9fb19b	0.077975474
173	0x3d84e0de	0.064882025
174	0x3d09000d	0.033447314
175	0xbe53ee18	-0.20696294
176	0xbd05ae59	-0.032636974
177	0xbcd313d4	-0.02576629
178	0xbe4dc1c2	-0.20093444
179	0xbe4e07cd	-0.20120163
180	0x3eb18e24	0.34678757
181	0x3e45f615	0.19332154
182	0x3e4829a4	0.19547135
183	0x3eb00b0b	0.34383425
184	0x3e2ea080	0.17053413
185	0x3de4840f	0.11158001
186	0xbe0e3b32	-0.13889769
187	0x3e0f5ace	0.13999483
188	0xbe07cf54	-0.13262683
189	0x3d77f880	0.060539722
190	0x3e344105	0.17602928
191	0x3e8912ca	0.26772147
192	0x3d6128ac	0.05497043
193	0xbccf252e	-0.025286283
194	0xbd7a28a6	-0.06107392
195	0xbe1d0e01	-0.15337373
196	0xbdc25c46	-0.09490256
197	0xbe4986cb	-0.19680326
198	0x3e604912	0.21902874
199	0x3e0c72ac	0.13715619
200	0xbd1ad70f	-0.037802752
201	0xbc2dc3be	-0.010605751
202	0x3dc41c8d	0.09575758
203	0x3d464a87	0.04841092
204	0xbdf55284	-0.11978629
205	0x3dc19f51	0.09454215
206	0xbc6195cb	-0.013768624
207	0xbc025751	-0.007955388
208	0xbdd13bf0	-0.1021651
209	0x3d63e7c6	0.05564096
210	0x3e383429	0.17988648
211	0x3db98613	0.09058776
212	0xbe050f4a	-0.12994114
213	0xbd4a9e1f	-0.049467202
214	0x3dc4ca1e	0.09608863
215	0x3d6a1c03	0.05715562
216	0xbe20261d	-0.15639539
217	0x3de827a7	0.11335688
218	0x3e4bbdf4	0.1989668
219	0xbddddd77	-0.10833257
220	0xbea39e5d	-0.3195676
221	0x3dcac0eb	0.099000774
222	0x3e850c1d	0.25985804
223	0xbe11e96d	-0.14249201
224	0xbafd5faf	-0.0019330884
225	0x3c971787	0.018443836
226	0x3db6ec44	0.08931783
227	0x3e41b1ec	0.18915528
228	0xbe8fe277	-0.28102466
229	0xbe9aea86	-0.30257052
230	0xbe06893b	-0.13138287
231	0x3e294be6	0.16532859
232	0xbe141c8c	-0.14464015
233	0xbe348463	-0.17628627
234	0x3c893dcb	0.016753098
235	0x3b97e67f	0.0046356316
236	0x3e80147b	0.25015625
237	0xbe0198d8	-0.12655962
238	0xbda463dd	-0.0802686
239	0x3e6ecfb2	0.23321417
240	0x3d93668c	0.07197294
241	0xbc0c82a1	-0.008576066
242	0xbe079eda	-0.13244191
243	0x3c0c896b	0.008577685
244	0xbd3fac48	-0.04679516
245	0xbdd94678	-0.10609144
246	0x3dfa933a	0.122351125
247	0x3bd31f86	0.006442967
248	0x3d6915b7	0.056905475
249	0x3e4650c4	0.19366747
250	0x3e1d2f87	0.15350161
251	0x3e70e975	0.23526557
252	0xbcbb5812	-0.022869144
253	0x3d660f10	0.05616671
254	0xbe2767f8	-0.16348255
255	0x3d6153f3	0.0550117

conv1.bias f4 [16]
0	0xbe2b69fe	-0.16739652
1	0xbeb3895f	-0.35065743
2	0xbd4f4bb5	-0.05060931
3	0xbddfdf1b	-0.10931226
4	0xbd817c53	-0.06322541
5	0xbec9e925	-0.39435688
6	0xbd9b8ecf	-0.07595598
7	0xbe03cb6a	-0.12870565
8	0xbd9865f6	-0.074413225
9	0x3e64d8e8	0.22348368
10	0xbdd85b48	-0.105642855
11	0xbd53ce80	-0.051710606
12	0xbdcc2e1a	-0.09969731
13	0xbd5fae53	-0.054609608
14	0x3dc2d9f6	0.09514229
15	0xbee2d4b5	-0.44302908

conv2.weight f4 [8, 16, 3, 3]
0	0x3db6f724	0.08933857
1	0x3d382262	0.044954665
2	0x3d73c318	0.059512228
3	0xbc7951f7	-0.015217296
4	0xbdeb37b8	-0.11485237
5	0xbd131c5b	-0.035915714
6	0xbcccad71	-0.024985047
7	0xbd370703	-0.04468442
8	0xbde4df50	-0.11175406
9	0x3dd511c0	0.10403776
10	0x3b298d6b	0.0025871645
11	0xbe1dd647	-0.15413772
12	0x3e0716cd	0.13192292
13	0xbc772d12	-0.015086429
14	0x3cc3ed85	0.02391697
15	0x3da7a710	0.081861615
16	0x3d420307	0.04736617
17	0xbdd72627	-0.10505324
18	0x3e1e9571	0.15486695
19	0x3d14de5e	0.03634488
20	0x3d8730db	0.06601115
21	0xbc1b6753	-0.009485084
22	0x3dcaabdc	0.09896061
23	0x3d6f0b28	0.05836025
24	0x3dca57b8	0.09880012
25	0xbd3e2f5c	-0.046431884
26	0x3c9cb773	0.019130444
27	0xbda5a159	-0.08087415
28	0xbd8de94a	-0.06929262
29	0xbcfb6426	-0.030687403
30	0x3c63dab4	0.013907123
31	0xbb70f08c	-0.003676447
32	0xbdb46493	-0.088082455
33	0x3e3b8b38	0.18314826
34	0x3d6134d3	0.054982018
35	0xbe0acf73	-0.13555698
36	0xbddb5b6e	-0.10710798
37	0xbd9189b0	-0.0710634
38	0xbc365443	-0.011128488
39	0xbdfc7cc8	-0.12328488
40	0x3dd59c1f	0.10430168
41	0x3d706fad	0.058700252
42	0xbdfdc5d1	-0.12391246
43	0x3e18a1f6	0.14905533
44	0x3dd7f647	0.105450206
45	0x3d7f3b0d	0.062312175
46	0x3c36a57a	0.011147851
47	0x3cd2048b	0.025636932
48	0xbdb9da0f	-0.090747945
49	0xbd74fe39	-0.059812758
50	0xbd2d45fb	-0.042303067
51	0x3c985fb6	0.018600326
52	0xbde24494	-0.110482365
53	0xbd269279	-0.04066703
54	0x3cc7c14c	0.024384163
55	0xbceced12	-0.028921638
56	0x3b481ac6	0.0030533536
57	0xbc4506d7	-0.0120255565
58	0x3dfb2f92	0.12264933
59	0x3c77a259	0.01511439
60	0xbcd930f4	-0.0265126
61	0x3d3833c7	0.044971254
62	0xbdad6155	-0.0846583
63	0xbd5310cb	-0.051529687
64	0x3d121c0e	0.035671286
65	0xbd9716cc	-0.07377395
66	0xbdc4e032	-0.09613074
67	0xbdcc046c	-0.09961781
68	0xbde8cd4b	-0.113672815
69	0xbd966815	-0.07344071
70	0xbce10f3c	-0.027473085
71	0xbe0fd3f1	-0.14045693
72	0xbcde75f0	-0.027155846
73	0xbd903221	-0.07040811
74	0xbd70d232	-0.058794208
75	0xbde71ec6	-0.112851664
76	0xbcde9aed	-0.027173484
77	0xbcc39937	-0.02387677
78	0xbdcbc61f	-0.09949898
79	0xbdef5ba6	-0.116874024
80	0xbca20b6d	-0.019780839
81	0xbab723c9	-0.0013972457
82	0xbdb25c1f	-0.08708977
83	0xbd8c653b	-0.06855246
84	0xbdaccf2f	-0.08437955
85	0xbc2ea922	-0.010660442
86	0x3ce6bf70	0.028167456
87	0x3de3f2db	0.111303054
88	0xbd082922	-0.033242352
89	0xbe2feecb	-0.17180936
90	0xbc522301	-0.012825728
91	0x3dc7ce6d	0.097561695
92	0xbcb46988	-0.022022977
93	0xbddcd664	-0.10783079
94	0x3d91b06c	0.07113728
95	0xbc979cd9	-0.018507408
96	0x3db09be0	0.08623481
97	0xbc862c54	-0.01637856
98	0xbd7a0bfd	-0.06104659
99	0x3c9358fe	0.01798677
100	0xbd4b8736	-0.049689494
101	0xbc13972c	-0.00900821
102	0xbc2f2c2c	-0.010691684
103	0x3d50a119	0.050934885
104	0xbd317690	-0.04332596
105	0x3d43b0b3	0.047775935
106	0x3e25db81	0.16197015
107	0xbd4edf95	-0.050506193
108	0x3d33ae20	0.04386723
109	0x3d49cf0f	0.049269732
110	0x3d52299d	0.051309217
111	0xbd115d4c	-0.035489365
112	0x3c6a678e	0.014306916
113	0x3e231a67	0.1592804
114	0x3e036ca3	0.1283441
115	0xbdd69bfe	-0.10478972
116	0x3c84ef75	0.016227463
117	0xbc5293a3	-0.012852582
118	0x3d55e200	0.052217484
119	0xbc28fa1d	-0.010313538
120	0xbd2a0571	-0.041509096
121	0xbe12d00a	-0.14337173
122	0xbe02caa4	-0.12772614
123	0xbe2d33ee	-0.16914341
124	0xbc8332ea	-0.016015489
125	0x3d198733	0.03748245
126	0xbd445de9	-0.047941122
127	0x3b7f51b2	0.0038958606
128	0xbcdc56a7	-0.026896788
129	0x3d543d40	0.051816225
130	0xbd62b7a3	-0.05535091
131	0xbd50ab30	-0.050944507
132	0x3e183f4f	0.148679
133	0xbd8332d6	-0.064061806
134	0xbca85b46	-0.020551335
135	0xbcd5f5eb	-0.02611824
136	0xbcee8186	-0.029114496
137	0xbd3d2d41	-0.046185736
138	0xbd8311c0	-0.0639987
139	0x3cb5a718	0.022174403
140	0xbd5a5932	-0.05330772
141	0xbc3bcf89	-0.011463054
142	0xbe13f0ff	-0.14447401
143	0x3d9a2efa	0.07528491
144	0x3e10b887	0.14132892
145	0xbd874cc0	-0.06606436
146	0x3c5e2eca	0.01356096
147	0x3d56de0a	0.052457847
148	0x3d9e06cc	0.0771614
149	0x3dfc4a8b	0.123189054
150	0x3d4ce0d9	0.05001912
151	0xbd0bafb6	-0.034103118
152	0x3c3a0899	0.011354589
153	0x3d81a4a7	0.06330233
154	0x3cb33b1a	0.021878768
155	0xbceba1cf	-0.02876368
156	0x3e046aa6	0.12931308
157	0x3e1b3f90	0.15160966
158	0x3d63bcb1	0.055599872
159	0x3dc7a7a1	0.097487696
160	0x3cdae333	0.026719665
161	0x3a24446d	0.00062663
162	0x3d780b0f	0.06055742
163	0xbd49ec51	-0.049297635
164	0x3c06130f	0.008183255
165	0x3e27e821	0.16397144
166	0x3e0abc62	0.13548425
167	0x3e335fd3	0.17517023
168	0x3daf6e68	0.0856598
169	0xbd8d5f79	-0.069029756
170	0xbe1b5086	-0.15167436
171	0xbd30d121	-0.04316819
172	0x3db3c8a8	0.087785065
173	0xbbd7ac9b	-0.0065818555
174	0xbc7e2610	-0.0155120045
175	0x3daaed0e	0.08345996
176	0x3cadb06f	0.021202294
177	0x3dcd6c87	0.100304656
178	0xbda2c1c2	-0.079471126
179	0x3d7ef720	0.062247396
180	0xbd13feef	-0.036131795
181	0x3d4db0e8	0.05021754
182	0x3d3559cb	0.044275086
183	0x3aa55fb8	0.0012617027
184	0xbc7c9a2a	-0.015417615
185	0xbe2d49c7	-0.16922675
186	0xbd157f98	-0.036498636
187	0x3c91a019	0.017776536
188	0x3d581514	0.052754477
189	0xbd3a48b8	-0.045479506
190	0xbe094411	-0.13404872
191	0x3c8d6f37	0.017264945
192	0x3d9da956	0.07698314
193	0x3e3bae53	0.18328218
194	0x3e243976	0.16037545
195	0xbc81097f	-0.015751598
196	0x3c9c1e16	0.019057315
197	0x3d9b9bda	0.07598086
198	0xbe1a52b4	-0.15070611
199	0x3dbfcb91	0.09364999
200	0x3d94292e	0.07234417
201	0x3dfb9bfb	0.1228561
202	0x3c3a3203	0.011364463
203	0x3c0eafca	0.008708904
204	0x3e04c114	0.12964278
205	0x3de04123	0.10949924
206	0x3ba3a13e	0.004993587
207	0xbd52e66e	-0.051489286
208	0xbb1cac14	-0.0023906277
209	0xbd019fed	-0.031646658
210	0xbcd9ab31	-0.026570888
211	0xbda2466d	-0.07923589
212	0xbd5879d1	-0.05285055
213	0xbd93c0d3	-0.07214513
214	0xbb8838d1	-0.0041571637
215	0xbca795bd	-0.020457143
216	0x3d43b979	0.047784302
217	0x3e500583	0.20314603
218	0x3d05b7d4	0.032646015
219	0x3e7fcb46	0.24979886
220	0x3e241694	0.16024238
221	0x3d7d6d01	0.061871532
222	0xbd7f5f2f	-0.062346634
223	0x3d996fd4	0.07492033
224	0x3d03f9e0	0.03222072
225	0x3e2790aa	0.16363779
226	0x3d8f09c4	0.069842845
227	0x3e2029b0	0.15640903
228	0x3d23c38e	0.039981417
229	0xbc93fea2	-0.018065754
230	0x3d48a867	0.048988726
231	0xbe14dbab	-0.14536922
232	0xbd8e0798	-0.06935042
233	0xbd9d03b6	-0.076667234
234	0xbd7a655e	-0.061131828
235	0x3df334af	0.11875283
236	0x3cd963a0	0.026536763
237	0x3dfaad6e	0.1224011
238	0x3cd7b4ec	0.026331387
239	0xbd6f2a61	-0.058390025
240	0x3c87f1ce	0.016594794
241	0x3d9e1240	0.07718325
242	0x3de53eab	0.111935936
243	0x3d3b7951	0.045769993
244	0x3e0d919b	0.13825075
245	0x3dce00b7	0.1005873
246	0x3e969176	0.29407853
247	0x3e6f136e	0.23347256
248	0x3deb398e	0.11485587
249	0x3d8781f8	0.066165864
250	0xba8781f6	-0.0010338414
251	0x3dff9d93	0.12481227
252	0xbd038a84	-0.03211452
253	0xbd67abe3	-0.05656041
254	0x3e69ad4a	0.22820011
255	0x3e48b1c0	0.19599056

conv2.bias f4 [8]
0	0xbd6cc970	-0.057809293
1	0xbdbf94c8	-0.0935455
2	0x3d6a2ff5	0.05717464
3	0xbdaa9604	-0.083293945
4	0xbd02b5e3	-0.031911742
5	0x3d7f5942	0.062340982
6	0xbe5c3102	-0.2150307
7	0xbe1693fb	-0.14704888

fc1.weight f4 [32, 512]
0	0x3a519ca3	0.0007996058
1	0x3c85c03b	0.016327014
2	0x3cea8df4	0.028632142
3	0x3d138df7	0.03602406
4	0x3cbe9d47	0.023268355
5	0xbcba0a40	-0.022709966
6	0xbcdbea2a	-0.026845057
7	0x3c8323bc	0.01600825
8	0xbc78a813	-0.015176791
9	0xbd11f690	-0.03563553
10	0x3ba8d21b	0.0051519996
11	0x3c1f54b1	0.009724782
12	0x3ce194e7	0.027536822
13	0x3c96382c	0.018337332
14	0xbcb01ced	-0.021498168
15	0x3c147fea	0.0090637
16	0xbcbdd519	-0.023172902
17	0x3c1914eb	0.009343366
18	0xbca16085	-0.019699344
19	0xbc97f91d	-0.018551404
20	0xbca5d351	-0.020242365
21	0x3c8febfc	0.01756858
22	0x3b88ad84	0.0041710753
23	0x3c2de63d	0.010613975
24	0x3ce93615	0.028468171
25	0xbc7c3015	-0.015392323
26	0x3d6fa3d0	0.058505833
27	0x3d17a75c	0.03702484
28	0xbc94b9cc	-0.018155001
29	0xbd0a3c4e	-0.033748917
30	0x3d1696b1	0.036764804
31	0xbca9f5ee	-0.020747151
32	0xbd4d49d4	-0.050119236
33	0x3c21661b	0.009851004
34	0xbb3fe112	-0.002927844
35	0x3c70c9c9	0.014696547
36	0xbd47dc61	-0.048794154
37	0x3d100455	0.03516038
38	0xbd0e2f59	-0.034713123
39	0x3cc54162	0.024079029
40	0x3c6ccfb7	0.01445382
41	0xbcbe106b	-0.023201188
42	0xbcfbc14c	-0.03073182
43	0x3c0eb994	0.008711237
44	0xbcf71954	-0.030163445
45	0xbc470e11	-0.01214935
46	0xbd022908	-0.03177741
47	0xbd43223b	-0.047640067
48	0x3d1789f8	0.03699681
49	0xbd432b7e	-0.0476489
50	0xbcdbd587	-0.026835216
51	0xbc93a323	-0.018022126
52	0x3c834260	0.016022861
53	0xbd060b49	-0.032725606
54	0xbc80e6e4	-0.015735097
55	0xbc0a59aa	-0.008444229
56	0xbb26dc77	-0.0025460997
57	0x3cf0192b	0.029308876
58	0x3d5d7a81	0.054071907
59	0x3b67ecc2	0.0035388921
60	0x3c3c1431	0.011479423
61	0x3c946cf5	0.018118361
62	0x3cce6840	0.025196195
63	0xbd161a7e	-0.03664636
64	0xbcb0548a	-0.021524686
65	0x3cf94a65	0.030430982
66	0xbbc5722e	-0.006025574
67	0xbcbc390c	-0.02297642
68	0xbcbf057b	-0.023318043
69	0xbb85d02f	-0.0040836553
70	0xbca79c82	-0.02046037
71	0x3cf1d891	0.029522212
72	0xbd563e0a	-0.05230526
73	0xbcaff843	-0.021480685
74	0xbd1c4f6c	-0.03816168
75	0xbd37309f	-0.044724103
76	0xbd21aa42	-0.03946901
77	0xbd5bf52e	-0.05370062
78	0x3d11123f	0.03541779
79	0xbca178c6	-0.01971091
80	0xbb87dcb6	-0.004146184
81	0x3d2ab34d	0.0416749
82	0xbd3ce4c8	-0.04611662
83	0xbd0de055	-0.034637768
84	0x3d7b0ef5	0.06129356
85	0xbc2ab4fe	-0.010419128
86	0xbc88d8fa	-0.016705025
87	0x3d2d692d	0.04233663
88	0x3c8ac2e0	0.016938627
89	0x3d258ac3	0.040415537
90	0x3d35199d	0.04421388
91	0x3d79fec4	0.06103398
92	0x3c868604	0.016421326
93	0x3befc17d	0.007316767
94	0xbd098080	-0.033569813
95	0xbcbb5ff1	-0.022872897
96	0x3cc756b1	0.02433333
97	0x3c92e698	0.017932221
98	0x3cbf4a22	0.023350779
99	0x3d096603	0.03354455
100	0x3d95f772	0.07322587
101	0xbc67e887	-0.01415456
102	0x3d209486	0.039204143
103	0xbc79c0b1	-0.015243695
104	0x3c291f87	0.010322458
105	0xbd1c0b3a	-0.038096644
106	0xbd37fd44	-0.044919267
107	0x3bb11cee	0.00540506
108	0xbd0c8cdc	-0.03431402
109	0xbcdd7e0f	-0.027037648
110	0x3ca559f7	0.0201845
111	0x3cd94b1f	0.026525078
112	0xbc150a8a	-0.009096751
113	0xbcfc42b0	-0.030793518
114	0xb9f13190	-0.0004600403
115	0xbc7ed89e	-0.015554575
116	0x3c07a824	0.008279834
117	0xbc1f0dca	-0.009707877
118	0xbd03bc1d	-0.03216182
119	0xbbda50df	-0.0066624726
120	0x3cc8f0e2	0.024528924
121	0x3cde77f2	0.027156804
122	0x3d5854a0	0.05281508
123	0xbcc8a96f	-0.024494855
124	0x3cc70261	0.024293127
125	0x3d6ddbd4	0.058070973
126	0x3c3542e5	0.011063312
127	0x3c9c1c6d	0.019056523
128	0xbc83dfc2	-0.016097907
129	0x3ce5d4df	0.028055606
130	0x3d83ca6d	0.06435094
131	0xbc43b1e9	-0.011944273
132	0x3d282f4f	0.041060742
133	0x3cf726e1	0.030169906
134	0xbd17abc4	-0.037029043
135	0x3c51525e	0.0127759855
136	0xbcdd85f3	-0.027041411
137	0x3ca12c2f	0.019674389
138	0x3cc805a5	0.024416754
139	0x3d4c6187	0.049897697
140	0x3c99b457	0.01876275
141	0xbd556a6a	-0.052103437
142	0xbc8754e5	-0.016519973
143	0xbbe57823	-0.007002847
144	0xbcba6ce4	-0.022757001
145	0xbb90ccb2	-0.004418933
146	0x3b497b9a	0.0030743838
147	0x3ce25f58	0.027633354
148	0xbd07634f	-0.033053692
149	0xbd85b1a0	-0.0652802
150	0xbcd92911	-0.02650884
151	0xbd362f20	-0.044478536
152	0xbc686227	-0.014183558
153	0x3ba4681f	0.005017295
154	0x3c410e66	0.011783218
155	0x3d2f40ac	0.042786285
156	0x3c40f340	0.011776745
157	0xbcf790d7	-0.030220432
158	0xbcc083f6	-0.023500424
159	0xbd72767f	-0.059195038
160	0xb8025796	-3.1075986e-05
161	0x3c276f29	0.010219374
162	0xbcc42c76	-0.023946982
163	0x3d2bd76b	0.041953485
164	0x3ba52dcc	0.00504086
165	0xbd50c625	-0.050970215
166	0xbd35469c	-0.04425679
167	0xbd13ebb6	-0.036113463
168	0x3c85ecd8	0.016348287
169	0xbd16a0b3	-0.03677435
170	0xba9c05a5	-0.0011903538
171	0x3ca954c2	0.020670298
172	0x3d6d34ce	0.057911687
173	0xbcd5d14c	-0.026100777
174	0x3c4891a8	0.012241758
175	0xbcc1c7f3	-0.023654914
176	0x3d342eb1	0.04398984
177	0xbc8b47f3	-0.017002081
178	0xbcfbe4b5	-0.030748704
179	0xbcabcf6a	-0.020972926
180	0x3cf79fda	0.03022759
181	0x3bb848fe	0.0056239357
182	0xbb831635	-0.00400045
183	0xbbcf71a2	-0.0063306848
184	0x3c83bceb	0.016081294
185	0x3d1385c3	0.036016237
186	0x3bfeb5dc	0.007773144
187	0xbd102d81	-0.035199646
188	0x3cf1ef4e	0.029533055
189	0xbca93b9f	-0.020658312
190	0xbc104e14	-0.008807678
191	0xbd4d0a08	-0.050058395
192	0xbc1b6d28	-0.009486474
193	0x3b8b1b05	0.0042451643
194	0xbd360af0	-0.044444025
195	0xbbd311f5	-0.0064413496
196	0x3be96cb3	0.0071235537
197	0xbca8997c	-0.020581
198	0x3d254507	0.040349033
199	0x3cfafafd	0.030637259
200	0x3cab65fd	0.020922655
201	0xbda8d6a2	-0.08244063
202	0xbd958023	-0.07299831
203	0xbd6ffc0c	-0.05858998
204	0xbc981c45	-0.018568167
205	0xbd26a3ac	-0.040683433
206	0x3c1c0942	0.009523692
207	0x3ab4d52f	0.0013796444
208	0xbd0ef9c5	-0.034906168
209	0xbd4e9576	-0.050435506
210	0xbd8d77e9	-0.06907637
211	0xbd227cfd	-0.03966998
212	0x3caa8ee4	0.020820089
213	0xbd1d3612	-0.038381644
214	0x3bb01698	0.005373787
215	0xbc6c5590	-0.014424697
216	0xbcf314d0	-0.02967301
217	0xbc37a18c	-0.011207949
218	0xbd85ab13	-0.065267704
219	0xbc91e4c0	-0.017809272
220	0xbd52f1cd	-0.05150013
221	0x3b12c9cb	0.002239811
222	0x3d4c39f1	0.049859945
223	0x3c05efc1	0.008174838
224	0xbcf29a81	-0.029614689
225	0xbd3b3a66	-0.04570999
226	0x3c8f609f	0.017502127
227	0xbc0ff032	-0.008785294
228	0xbd5097b2	-0.050925918
229	0x3905fd52	0.00012778238
230	0x3d9d6aba	0.07686372
231	0xbb922c9a	-0.0044608833
232	0x394a527f	0.00019294953
233	0xbd52310a	-0.0513163
234	0xbc3aeb83	-0.011408689
235	0xbd830522	-0.063974634
236	0xbd22d102	-0.039750107
237	0x3cb6aea4	0.022300072
238	0x3b8bee23	0.0042703315
239	0xbd643b13	-0.0557204
240	0xb955359b	-0.00020333233
241	0x3c452f81	0.012035252
242	0xbccb6372	-0.024827693
243	0x3b87179e	0.0041226884
244	0xbd0a7be3	-0.033809554
245	0xbc53b7ea	-0.0129222665
246	0xbd1ce2c7	-0.03830221
247	0x3b990b05	0.004670503
248	0xbd06fb2b	-0.032954376
249	0xbd6dbbee	-0.05804055
250	0xbba6b0a8	-0.005086977
251	0xbcc9925b	-0.02460592
252	0xbd113c97	-0.035458174
253	0xbae36c8d	-0.0017351076
254	0x3c054e0d	0.008136285
255	0xbce74bd1	-0.028234394

fc1.bias f4 [32]
0	0x3d453f6b	0.048156183
1	0xbd87d667	-0.06632691
2	0x3d82cbae	0.06386505
3	0x3d3dac02	0.046306618
4	0x3ca59a27	0.020215107
5	0xbaad9646	-0.0013243638
6	0xbdd92207	-0.10602193
7	0x3d85c4cc	0.06531677
8	0x39ba3092	0.00035512872
9	0xbd026f08	-0.03184417
10	0x3cb7800e	0.022399928
11	0xbccb9c12	-0.024854694
12	0x3c5c3cdc	0.013442244
13	0xbd15055c	-0.036382064
14	0x3bedee25	0.007261055
15	0x3d8b3773	0.067976855
16	0xbc9d72d2	-0.01921979
17	0x3deca2be	0.11554478
18	0x3bd8eb03	0.0066198125
19	0xbbce3c9a	-0.0062938454
20	0x3cf35467	0.029703332
21	0x3c9fe09a	0.019516278
22	0x3d35d508	0.044392616
23	0xbc866702	-0.01640654
24	0xbd26257c	-0.04056309
25	0x3da1d253	0.07901444
26	0xbcbfde80	-0.023421526
27	0xbd132058	-0.035919517
28	0x3d1f7338	0.03892824
29	0x3d8c3447	0.068459086
30	0x3c745fb4	0.0149153955
31	0xbc3830cd	-0.011242104

fc2.weight f4 [2, 32]
0	0xbebcf4f4	-0.36905634
1	0xbec037ae	-0.3754248
2	0xbf261204	-0.6487124
3	0x3ed5b7e6	0.41741866
4	0x3ee1f1a8	0.44129682
5	0xbddbe84e	-0.10737668
6	0xbf1b875b	-0.6075341
7	0x3f18c7ac	0.59679675
8	0xbe87e550	-0.2654214
9	0xbe4f5938	-0.20248878
10	0x3ecfe261	0.406024
11	0xbed6eddf	-0.41978356
12	0x3ea2526a	0.31703502
13	0xbe101aa1	-0.14072658
14	0x3d82d6d2	0.0638863
15	0x3ec88dd7	0.39170715
16	0xbe9a38ae	-0.30121368
17	0x3f10233d	0.5630377
18	0xbe464027	-0.1936041
19	0x3ead9669	0.33903816
20	0x3e916e0b	0.2840427
21	0x3da5b13e	0.08090447
22	0x3e64aac8	0.22330773
23	0xbe11f453	-0.14253359
24	0xbe026538	-0.12733924
25	0x3eb2cc71	0.349216
26	0xbe525890	-0.20541596
27	0xbec3d402	-0.38247687
28	0xbd97e34a	-0.07416399
29	0x3e867076	0.26257676
30	0x3e280527	0.16408215
31	0xbb6ea04c	-0.0036411462
32	0x3e1ca307	0.15296565
33	0x3ee15583	0.44010553
34	0x3f38710a	0.72047484
35	0xbeb160c7	-0.34644148
36	0xbefab2da	-0.48964578
37	0x3e73a7a3	0.23794417
38	0x3f272dcb	0.6530425
39	0xbf0bc11a	-0.54591525
40	0x3e4acafb	0.19803993
41	0x3eafe4cc	0.34354246
42	0xbebeb6df	-0.37248895
43	0x3e76a590	0.24086595
44	0xbd44b7d1	-0.048026863
45	0x3e3c44b0	0.18385577
46	0x3e2aaf13	0.16668348
47	0xbeae50bd	-0.34045973
48	0x3d4b4fb6	0.049636565
49	0xbef5e248	-0.480242
50	0xbdd84441	-0.105598934
51	0xbda4bc9a	-0.080437854
52	0xbbf0e1d5	-0.00735114
53	0xbe9cda87	-0.30635473
54	0xbd6c6a4e	-0.057718568
55	0xbe3e713f	-0.18597887
56	0x3e08a812	0.13345364
57	0xbef52f68	-0.4788773
58	0xbd79eb5d	-0.061015476
59	0x3e3f5673	0.18685322
60	0xbe17fb30	-0.14841914
61	0xbd4b5340	-0.04963994
62	0x3d480d72	0.048840947
63	0x3d152b98	0.036418527

fc2.bias f4 [2]
0	0xbcef9da0	-0.029249966
1	0xbd627ac7	-0.05529287
